model/model.pth (torch, 275271 bytes, 6 tensors)

linear1.weight f4 [256, 5]
00000000: 7e4a 89bd 8bfc b0bc e291 813f f0e5 7e3e
00000010: 9847 613e 1cbd 8fbd 6926 98bd ce59 8dbf
00000020: 0818 7b3e 5c7f 203e 5547 eebe fc30 b23d
00000030: 1df0 8abe b68b 98be 4e64 e13e 8851 a23e
00000040: d62d ecbe 7b19 75c0 e379 cabe 804c 103c
00000050: a1ca e0bd deed 0cbd 5308 4840 4c53 f3bd
00000060: 37c0 a6be 2387 123d 3de4 a9be a67f 11c0
00000070: a88d 0abe f842 c83e 2fd1 febd 3709 6ebe
00000080: 06ba 9fbd 7022 d33e 1aa3 c23e 3261 b2be
00000090: 955c de3c e017 9e3e 703c ed3d 84c9 de3e
000000a0: e0ec ad3a 9a6a e3be 7131 78be 80d0 17bb
000000b0: 1e71 c2be f661 553e dde8 bdbe bb9b 6c40
000000c0: b4ac cfbe 44f6 7b3e 58ee 71bd 70cd 6abc
000000d0: 32c5 4d40 6064 3e3e 6029 ac3c 6c46 f1bd
000000e0: 2cf6 49bd 4cf9 9c3f b014 3a3d c059 353d
000000f0: 5413 903e 021b ebbe fc71 25c0 04b1 5f3e
00000100: e84c 583e 5af2 9dbe 21a9 88be 63ae 1b3e
00000110: 8d62 dcbe 2ecd d53e 83d9 aebd d42d 1fbf
00000120: 105a a93f 01bf b9be 08be d4bd 5506 5b3d
00000130: 908e 04bf efff df3f 8041 8cbe 865e c53e
00000140: 3d97 69be f06c 613e ee20 be3e 9812 343d
00000150: 732c a5be 72bb 6f3c 8239 aabe e95e 383f
00000160: c491 d3bd 504b e13e 179e 513d 2285 e1be
00000170: 8c8c 3b40 9886 3dbe 5cd1 dc3e 5c0c 0fbe
00000180: 1b89 25be cf25 23c0 7673 d1be ec74 1abe
00000190: d79f 20be 8051 81bc 12ca 063f 5b07 9bbe
000001a0: 6ce4 e7bd ff4d d0be 71bb a5be b67b 003f
000001b0: cc1e 8cbe 406c 0d3e f214 34be 16e7 d83c
000001c0: 3700 acbd 8b6b a6be e23d 7bbe c218 65be
000001d0: ea7d e73c 561a e43d bebc 813e 24c1 673e
000001e0: e51c 0cbc e084 4cbe 48c0 f43e bc23 103e
000001f0: d49c 673e 4297 a9bd c632 503e 21bb 8040
00000200: 0c91 8ebd 073a 76be 7ae5 02be 543c 57bc
00000210: 3a49 29be 0409 b1bd dc53 c2be c96d 3d3d
00000220: 9f92 0a3c 3745 7dc0 50eb 753e 20bb 8e3e
00000230: 38f8 fabe 6666 b53d cac8 663e 6c0d c43e
00000240: e865 213d 9b97 8cbd a08c a93e 3e16 8dc0
00000250: b211 b8be 2096 b63d f243 89be 24cd 493e
00000260: f84b e63e 085a e8bd 270f 60be 29a8 0abe
00000270: 82e2 9ebe 2349 0ebe 0e35 04be be8a 96be
00000280: 5f92 96bd 0be0 dd3b ac8d f6bf bc4e b53e
00000290: a01a 2c3e 686f 26bc 77e3 92be 5289 a6bf
000002a0: 006b 073e a2fa a43e 9584 f8bb e3cc c9bd
000002b0: 41a9 62bf 046e b73e 46d5 b83e 28d8 36be
000002c0: f5f9 653e 09cd 26bf 7c29 233e e89e 0c3d
000002d0: bc11 44be fe6a 5dbd 003a d73e 24a4 fcbd
000002e0: 2c22 d1bd 1b82 283d 6678 07bf 2614 26c0
000002f0: 2ce0 703e 22b5 c4be fb9d d6be 4662 9f3d
00000300: b393 01bf a290 acbe 345f a5be c795 24bd
00000310: 0c2d 74be 6987 6abf fc74 8d3e 0098 593d
00000320: 507f abbe 71a0 afbe 5d70 c43e b4bf 973e
00000330: 10a9 87be b93f 73be ec5a 1c3e 06b5 9abe
00000340: 60be d23c b82f 803d 9f68 87bd c973 a8be
00000350: a704 33be 3c0c c53e 6063 373e 0899 40be
00000360: 0f1f 84bc e3ce 7cbf f899 80be 6210 a3be
00000370: bba4 2b3c 7e84 87be d247 8abf a07f dcbc
00000380: 5a7c c33e 1e06 8fbd f13d ebbd a1f6 de3f
00000390: 587f 473e 6c74 5a3e 211f c7bb cd21 9fbe
000003a0: 990c bbbe d0ca 5cbd c0d8 923b 09fc 8ebe
000003b0: 475f 093d 6319 a5be b23f cfbe 4c12 04be
000003c0: 2125 91be 8213 2b3d 21e1 e73d 3802 363d
000003d0: 188d 843d 293d a73b 37e4 d03b b7df 8e40
000003e0: adb6 cfbe 00fd cebc 36c3 53bd de71 68bd
000003f0: 40e8 2240 7e67 1abe 0461 9a3e cc00 68be
-0.067036614 -0.021604797 1.0122645 0.24892402 0.21999967 -0.070184916 -0.07429201 -1.1043031
0.24520886 0.15673584 -0.46538797 0.08700749 -0.27136317 -0.2979409 0.4402184 0.31702828
-0.4612872 -3.8296802 -0.39546117 0.0088073015 -0.109761484 -0.034406535 3.125508 -0.11881122
-0.32568523 0.035773408 -0.33181944 -2.273416 -0.135306 0.39113593 -0.12442242 -0.23245703
-0.07799153 0.4123721 0.38015062 -0.3483978 0.027143756 0.3087759 0.11583793 0.4351312
0.0013269447 -0.44417268 -0.2423761 -0.0023165047 -0.37976927 0.2083815 -0.37091723 3.697005
-0.4056145 0.24605662 -0.059065193 -0.014331207 3.2151608 0.18592978 0.021015823 -0.1178101
-0.049307033 1.2263579 0.045429885 0.044275045 0.28139746 -0.45919043 -2.585082 0.2184487
0.21123087 -0.30848962 -0.26691535 0.15203242 -0.43043938 0.41758102 -0.08537581 -0.62179303
1.323061 -0.36278537 -0.10387808 0.053472836 -0.51780033 1.749998 -0.27393723 0.38548678
-0.22811599 0.22014213 0.37134498 0.043963045 -0.32260475 0.014632093 -0.33247 0.7201982
-0.10330537 0.4400277 0.051176157 -0.44046885 2.9304533 -0.18508375 0.4312848 -0.13969558
-0.16165583 -2.5491827 -0.40908402 -0.15083665 -0.15685974 -0.015785933 0.52652085 -0.3027905
-0.11322865 -0.40684506 -0.3236957 0.5018877 -0.27367246 0.13810825 -0.17586115 0.026477378
-0.083984785 -0.32503924 -0.24535325 -0.22372726 0.028258283 0.11137836 0.2533931 0.22632271
-0.008551811 -0.19972563 0.4780295 0.14076132 0.22618419 -0.08280803 0.20331869 4.022843
-0.06961259 -0.24045573 -0.12782851 -0.013136942 -0.1653184 -0.08644298 -0.37954605 0.046247277
0.008457809 -3.9573495 0.24015546 0.2787714 -0.490175 0.088574216 0.22537532 0.3829149
0.039403826 -0.06864854 0.331151 -4.408965 -0.35951 0.08915353 -0.2680965 0.19707161
0.44979835 -0.11345297 -0.2188078 -0.1354071 -0.31032187 -0.13895087 -0.12910864 -0.29402727
-0.07352137 0.006771093 -1.9261985 0.35411632 0.16807032 -0.010158397 -0.28689167 -1.3010657
0.13224411 0.32222468 -0.0075841644 -0.09853532 -0.8853951 0.35826123 0.36100215 -0.17855895
0.22458632 -0.6515661 0.15933794 0.034331232 -0.1914739 -0.054057114 0.42036438 -0.12335995
-0.10211596 0.041139703 -0.5291809 -2.5949798 0.23523015 -0.38419443 -0.41917405 0.07782416
-0.50615996 -0.33704096 -0.32299197 -0.0401819 -0.23845309 -0.9161287 0.27628314 0.053123474
-0.3349557 -0.34302095 0.38366976 0.29638445 -0.26496172 -0.23754777 0.15269059 -0.30216235
0.025725543 0.06259102 -0.06611752 -0.32900837 -0.17482243 0.38485897 0.17909002 -0.18808377
-0.016128091 -0.98753184 -0.2511747 -0.31848437 0.0104762865 -0.2646827 -1.0803168 -0.026916325
0.3818081 -0.06983589 -0.11486424 1.7419015 0.19482172 0.21333474 -0.006076709 -0.31080475
-0.3653305 -0.053904355 0.004481405 -0.27926663 0.03353813 -0.3224593 -0.40478283 -0.12897605
-0.2834864 0.04176665 0.11322237 0.04443571 0.06472224 0.0051037264 0.0063748616 4.464809
-0.40569058 -0.025267124 -0.05169984 -0.056749217 2.5454254 -0.15078542 0.30152142 -0.22656554

linear1.bias f4 [256]
00000000: 5aaf 823f cb82 cfbe e36f ccbe 75ed 34c0
00000010: 6c9f 0c40 568d c4bf 9190 7abe 4094 563e
00000020: 6876 3dbf 8df6 2440 7ce8 4b40 1d94 c53f
00000030: 2168 e4bf 99e0 033f 4b06 3d3f 9b23 a63f
00000040: 12ce 853e 6877 68be 7cf3 ef3f 1caf 9dbf
00000050: 71d1 a13e 9278 f93e f6ea 87be d0f5 003f
00000060: 2df2 483f 4e91 4440 0cef 9bbe 04e2 2fc0
00000070: bbf0 7dbd f710 3fc0 0a7c f53e cbde 073f
00000080: 79e0 ebbe 5182 28bf 88e1 80bf 5e06 a3bf
00000090: 2b78 27be 6352 b2bf 7f2a 31be 67ff b9be
000000a0: 8da7 c33c 488d c7be dda8 0f3f 3999 1a3f
000000b0: d3f4 15bf 1b99 cf3f 2f34 8e3e c159 e8be
000000c0: fe52 e73e f477 7b40 aa0d 6a40 f9ea f93f
000000d0: 3f51 b8bd ddd5 a53e 097d 49bf cb00 e4be
000000e0: 121c 1b3f 68a9 dfbe 39b4 1ac0 a1a3 4240
000000f0: 1009 d2be 4f80 143c 12bc 0ac0 b109 833f
00000100: 5d0b b93e 9f39 05c0 94e7 c13f 2777 a2be
00000110: bf4e 0bbf cc94 1dbe 86b1 30be aeaa 8ebf
00000120: 23d0 1cbe cdcf 16c0 563b 0a40 dd80 0b3f
00000130: c204 0a3f 26b0 8dbf 6d83 953e 7c56 d6be
00000140: 5949 9d3f 0be7 8ebe 1e59 ff3b cf13 023d
00000150: c59a 20be 8904 033f f46f 1440 174f b23f
00000160: d5fb cb3e 390e 2f3e e5be 1240 c178 713e
00000170: 72df aebe f5b2 1840 015c 33bf d570 8440
00000180: 4921 5ebf 849c 25be c4f1 d9bc f43a 3c3c
00000190: a8fc 113f db23 babf d1a6 aabf 2b36 97bc
000001a0: ed3a 593e 3f0a 39c0 51c8 e53f 0829 e0bf
000001b0: 4a6f 62bf 1823 4740 112c 4840 dbf7 ac3e
000001c0: a469 223f 7a07 30be c6c6 7ebe f86b 9e3d
000001d0: b8ea 543f bd3e 2b3e 4be2 0b3f 5fdb 093f
000001e0: 3ae1 04bf d55c 19be 33c2 05c0 4c5a 5b3f
000001f0: 6b53 aabf 31ca 78be 1795 2dc0 e695 7e3e
00000200: 74a3 0c3e c6af d83e 2808 453e 0d26 1740
00000210: 5336 8fbd eba1 21c0 692f 27c0 0806 853f
00000220: dbc1 05bf 7b39 563f f949 c3be 0b68 66bf
00000230: c1fb 9c3e b82b 42be 10c7 a83e 5e54 523f
00000240: 9ee0 1e3d 31aa 41bd 1353 b83f 7443 f1be
00000250: 840a 33be ad97 f4bd 63ee b23f cbbe c63e
00000260: 44b4 8abf 8364 9ebe bcfb 9b3e c408 923b
00000270: 8d99 183f 2d85 afbf 1527 30be 1ca9 09bf
00000280: 0a1a 03bf a515 8440 abcd 8540 4fa2 973e
00000290: 9366 eebe 8647 053f fa0b 693f 1d5c 493e
000002a0: 7fa2 d93e 2be8 96bd c76d 263e 96f1 813f
000002b0: 4893 debf 75a4 b1c0 e211 8abf 024a 3fbe
000002c0: cfc5 3fbe 067d e6bf 43c8 88bc 52b4 ba3e
000002d0: 18b3 42be b2aa 82c0 a518 cabe 3d4d 113f
000002e0: 0eb3 4abf 60bb 91be d41a 7440 6b6d 003f
000002f0: 30e6 883f d2aa 01bf 4fe5 acbe dd97 893e
00000300: 909b 29bf efcb 0240 62b9 5abe f1d8 45be
00000310: 4698 1e3f 4a1d fb3e e878 9d3f 9a47 c1bd
00000320: b9fc 223e 753c a5bf 64fd 8bbe 474e f13d
00000330: b56f 463f 1ac5 99be 0550 c1bf ab72 dfbe
00000340: 0c05 c23e 67a6 0bbf af25 4f3f e923 a73f
00000350: 449c ae3f 0841 cbbf 45bd 25c0 0ecb 503e
00000360: 1418 f63f deac 2e3e e462 90bf c19a 0b40
00000370: 9143 d73e ed7f b9be ec0d af3f 98e0 5abe
00000380: 05e2 8c3f 8a08 8f3f d4ae 2bc0 7ff4 b4bf
00000390: 535e 0e3f b07e 153f 8f88 973f 6290 a93b
000003a0: 3139 2d3f 8d30 2740 8502 1ac0 0944 b4bb
000003b0: cf39 9bbe 2b1e cfbd 801b 083e b1a9 adbe
000003c0: df8f d9be 9148 0a3e 43ba 39c0 151b 8cbd
000003d0: e150 e43d c599 a4be d1c6 29c0 6928 2cbe
000003e0: 3fa0 043f 2d63 aabe 251b 9e3f 6006 753c
000003f0: 017e c23e d465 adbf aef3 c4bf fb72 1e40
1.0209763 -0.40529475 -0.39929113 -2.8269932 2.1972303 -1.5355632 -0.2446921 0.2095499
-0.740088 2.5775483 3.1860647 1.5435826 -1.7844278 0.51514584 0.7383773 1.2979616
0.26133782 -0.227018 1.874618 -1.2319064 0.31605104 0.487248 -0.26546448 0.5037508
0.7849453 3.0713687 -0.30455816 -2.74817 -0.061997157 -2.9854105 0.47946197 0.5307433
-0.46069697 -0.6582385 -1.0068827 -1.2736318 -0.16354434 -1.3931392 -0.17301367 -0.3632767
0.023883605 -0.38974977 0.5611704 0.6039005 -0.585767 1.6218599 0.27774188 -0.45380977
0.45180506 3.9291964 3.657084 1.9524833 -0.089998715 0.32389727 -0.78706414 -0.44531855
0.60589707 -0.43683934 -2.41725 3.041237 -0.4102254 0.009063794 -2.167729 1.0237333
0.36141482 -2.081642 1.5148797 -0.3173153 -0.5441703 -0.15388793 -0.1725522 -1.1145837
-0.15313773 -2.3564332 2.1598716 0.54493505 0.5391351 -1.1069381 0.29201832 -0.41862857
1.2288009 -0.27910647 0.007792606 0.031757172 -0.1568404 0.51178795 2.319333 1.3930386
0.3984057 0.1709527 2.2929013 0.2358122 -0.3415485 2.3859227 -0.7006226 4.1387734
-0.8676954 -0.16172987 -0.02660454 0.011488665 0.5702615 -1.4542192 -1.3332158 -0.018458446
0.21213885 -2.8912504 1.7951757 -1.7512522 -0.88451064 3.111517 3.1276896 0.3378285
0.63442445 -0.17190352 -0.24880514 0.07735437 0.8317065 0.16723152 0.5464217 0.5385036
-0.5190617 -0.14976819 -2.089978 0.8568466 -1.3306707 -0.2429588 -2.7122247 0.24861869
0.13734227 0.42321604 0.19241393 2.3616974 -0.069927834 -2.5255077 -2.6122687 1.0392466
-0.52248925 0.8368146 -0.38142374 -0.90002507 0.30660823 -0.1896199 0.32964373 0.82159984
0.03878843 -0.047281448 1.4400352 -0.47121775 -0.1748448 -0.11942992 1.3979 0.38817438
-1.0836263 -0.3093606 0.30465496 0.0044566114 0.596093 -1.3712517 -0.17202409 -0.53773665
-0.5121161 4.127642 4.181356 0.2961602 -0.46562633 0.5206226 0.910339 0.19664045
0.42506787 -0.07368501 0.16252814 1.0151851 -1.7388697 -5.5513253 -1.0786707 -0.18680575
-0.18727802 -1.8006904 -0.016697055 0.36465698 -0.19013631 -4.083337 -0.39471927 0.5675848
-0.79179466 -0.28463268 3.8141375 0.5016696 1.0695248 -0.50651276 -0.337687 0.26873675
-0.66252995 2.043697 -0.2135978 -0.19321038 0.619511 0.49045783 1.2302523 -0.09437485
0.15916719 -1.2909075 -0.2734176 0.11782508 0.775142 -0.3003319 -1.5102545 -0.43642172
0.37894475 -0.54550785 0.80916876 1.3057834 1.3641438 -1.5879221 -2.589677 0.20389959
1.9226098 0.17058131 -1.1280179 2.1813204 0.42043737 -0.36230412 1.3676124 -0.21374738
1.1006476 1.1174481 -2.6825457 -1.4137114 0.5561268 0.58396435 1.1838549 0.0051746825
0.6766539 2.6123383 -2.4064038 -0.0055012745 -0.30317542 -0.10113176 0.1329174 -0.33918527
-0.42492577 0.13504244 -2.9019935 -0.06841103 0.11148239 -0.32148567 -2.6527598 -0.1681229
0.51807016 -0.3327879 1.2352034 0.014955133 0.37986758 -1.35467 -1.5386865 2.4757679

linear2.weight f4 [256, 256]
00000000: bdad 4e3d 9d84 c73c 33f3 80bd d083 acbc
00000010: be95 a23c bc73 b2bc fc5b 9ebc fcbe a23d
00000020: 6248 b23c d01f 353d 2e8b 80bc 56ab 103d
00000030: e3fd 533d ea2e 303d 960f 053c 789b 3d3d
00000040: a876 81bb 8726 933c 9b35 373d 62d7 903c
00000050: 5427 323d 3e24 36bd 4eb9 723d ed3e 54bd
00000060: eff4 6ebd be2d 55bd c278 9b3c 3fe6 99bd
00000070: c882 10bd 1eb8 ed3c 241d 9f3c bc9c f9bc
00000080: 852e 333d 7908 cf3c 5271 543c 9ddd 8d3d
00000090: dcb9 eb3c af8c b9bb 391c 0ebc e7b4 5b3b
000000a0: 64e5 80bc 3730 3a3c 6842 da3c 5b2c 8bbb
000000b0: e171 03bd c5da 1e3d 229d 6ebd b0f5 d63c
000000c0: 7c6c df3c 24b3 69bc 8a66 173d f882 9d3b
000000d0: e25b 4a3d cbc9 3d3d 5703 04bd 2041 083b
000000e0: 9e25 1dbd 4c65 f63c 0bd2 66bd 2549 5ebd
000000f0: 9aed 0fbd 2d82 1abd 79cb 2cbd b6f6 b2bc
00000100: 4220 3bbd 26b7 cfbc 7f44 163d 281f 18bc
00000110: 5797 a9bc fc3a fdbc 6f6a 1f3d 5b04 6f3d
00000120: 7b74 413d 3adf 0d3d 1dbc ad3c e08e 783c
00000130: 76e6 5d3d 9b51 61bd a4d0 fabc 684d 033c
00000140: a052 eabb 0192 9abc b805 5f3c d491 bf3c
00000150: 9299 063d 865c ee3c 0890 cd3a 8141 6bbd
00000160: 5860 243d 4ae2 57bd d282 093d b772 0f3d
00000170: e894 023c 6b1a 0dbd f33b 203d 34f8 04bd
00000180: c448 203d 58e6 7d3c f6d1 393d 8066 683c
00000190: 4fb4 71bc 3352 69bd d5a0 1ebd 045e b73c
000001a0: 38c5 873c fa5d 8c3c 11a2 3c3d 268e 3fbd
000001b0: 0771 2cbb 1dfc 1bbb 7c56 0d3d 4d2b 98b9
000001c0: 80ef 77bc d0f7 c4bb 3b6b 26bd a04a 29bc
000001d0: 43e2 013d c0de 74bd 74c3 ce3c d4f0 85bc
000001e0: 407a 8b3b 5809 40bd b2b7 1a3d 7783 2f3d
000001f0: ede8 543d 2819 23bc c214 83bd a80d 5cbc
00000200: d003 e5bc 8bec edbb 1898 f63a c7aa 303d
00000210: 44c0 08bd 336b 3abd 851b 4ebc 49c2 68bd
00000220: 54c6 393d 09a8 173c a173 2c3d 679d 0b3d
00000230: 928a 3fbd e45b 6fbd 008f d8bc 061c 663d
00000240: 933c 9fbc e839 333c fa5b 1dbd be7f 203d
00000250: 380b 403d a01c d0bc 0b34 acbc ca63 43bd
00000260: 63a1 213b d657 3f3d abbf c13c 0536 86bc
00000270: 6ea7 57bd 4c82 78bd 7401 2f3d 600a 653d
00000280: 26d3 6ebd 123f 8fbd 9e80 ab3c d836 97bc
00000290: c074 903a 8ef3 373d f415 84bd 08cb 733c
000002a0: 368f 38bd 40b7 8f3c de31 4ebd 744b 0dbd
000002b0: e9bf 003d 9886 abbd e599 7dbd 38e3 40bc
000002c0: 0a36 18bd 4199 b43c c42d 833c 8841 3d3d
000002d0: 8c0d 103d 54aa 4cbd 409b d43a 60f9 dd3b
000002e0: 811e 713d a819 753c 5f26 80bd 2625 01bd
000002f0: c7be 473d 3eea 79bd 7632 20bd 1018 0ebd
00000300: c739 37bd fc9e fb3c 18ad 2c3d 40cd 8cba
00000310: 2dc3 e73a 7df0 e1bc e8de 013d 7afb c9bc
00000320: 1091 073c e595 1abd 78d1 9cbc 3867 50bd
00000330: 7042 8f3c e5ef 04bd a5a7 b83c fc97 26bd
00000340: beee 883d 154e 38bb 8f47 44bd 2d7a c43c
00000350: b126 8bbb cab1 b237 3807 13bd 15aa aebc
00000360: 1b2a 1abd 2a2a 6ebd ef2b 6bbd 369d 37bd
00000370: 324d 73bd 3cd6 fa3c 6972 54bc 4c78 65bd
00000380: 9643 f73b 8fc1 82bd 4807 d1bc 2017 d33c
00000390: dec8 4a3d e070 743d 4c6e 23b9 a4f4 c63c
000003a0: 584d ecbc d2b7 4e3d 2c61 cdbb aae4 813c
000003b0: dc4d fabc 6458 80bd ce22 29bd 2b9b 9f3c
000003c0: 0a67 c6bc 68f1 a13c 43ab 83bd 11d1 573d
000003d0: a0be 203b 1af9 91bc 4f41 e3bc ba48 78bd
000003e0: 9dcb f03c a4f6 86bd c2fc 2abc 0aa5 2d3d
000003f0: d05f 04bc c740 e33c 50ec abbb d7ea 99bd
0.05045866 0.024355227 -0.062963866 -0.021058947 0.019846793 -0.021783702 -0.019330971 0.07946584
0.02176303 0.044219792 -0.015691366 0.03531965 0.051755797 0.04301349 0.008121392 0.046290845
-0.0039509125 0.017962707 0.044728857 0.017680828 0.043494537 -0.044468157 0.05925875 -0.051817823
-0.058339056 -0.052045576 0.01897848 -0.07514619 -0.035280973 0.029018458 0.019423075 -0.030470245
0.043745536 0.025272595 0.012966471 0.06927035 0.028775148 -0.0056625227 -0.008673721 0.0033524574
-0.015734382 0.011364034 0.026642993 -0.004247231 -0.032091025 0.038782854 -0.058255322 0.0262402
0.027273409 -0.014263902 0.036963023 0.0048068725 0.049404033 0.046335023 -0.032229748 0.002079077
-0.038365953 0.030077599 -0.056352656 -0.054268975 -0.035138704 -0.0377218 -0.042186234 -0.021846157
-0.04568506 -0.025355887 0.036686417 -0.009284772 -0.020702047 -0.030911915 0.038919862 0.058353763
0.047230225 0.034636714 0.021207863 0.015170783 0.054174863 -0.055009466 -0.030617066 0.008014061
-0.007150963 -0.018868448 0.013612203 0.023384966 0.0328613 0.029096853 0.0015683183 -0.057435516
0.040130943 -0.05270604 0.033572026 0.03502151 0.007970072 -0.034449022 0.039119672 -0.032463267
0.039131895 0.015496813 0.04536625 0.014184594 -0.014752462 -0.056963157 -0.0387276 0.022383697
0.016573533 0.017134655 0.046052996 -0.046766423 -0.0026312487 -0.0023801394 0.034506306 -0.0002902396
-0.015132785 -0.006010987 -0.040629607 -0.010332733 0.03170992 -0.059782743 0.025239684 -0.016350187
0.0042565167 -0.04688391 0.03777284 0.042849984 0.051979948 -0.009954728 -0.064004436 -0.01343099
-0.02795592 -0.007260864 0.0018813638 0.043131616 -0.033386484 -0.04551239 -0.012579803 -0.05682591
0.045355156 0.009256371 0.04210246 0.034085657 -0.04676301 -0.058437243 -0.026435375 0.05617907
-0.019438064 0.010939099 -0.038417794 0.039184324 0.0468857 -0.025404274 -0.02102091 -0.04770259
0.0024662844 0.046714626 0.023650965 -0.01638318 -0.052649908 -0.060671136 0.042725995 0.055918097
-0.058306836 -0.069944516 0.020935353 -0.018458769 0.0011021122 0.044910006 -0.064495 0.014879949
-0.04505845 0.017543435 -0.050340526 -0.034495786 0.03143302 -0.08375281 -0.061914343 -0.011772923
-0.03716091 0.022045733 0.016013034 0.046205074 0.03516917 -0.049967125 0.0016220585 0.0067741126
0.05886698 0.01495973 -0.06257319 -0.031529568 0.048765924 -0.061014406 -0.039110623 -0.034690917
-0.044732835 0.030715458 0.042157263 -0.0010742322 0.0017682068 -0.027580494 0.03170672 -0.024656046
0.008274332 -0.037740607 -0.019142851 -0.050879687 0.017487735 -0.032455344 0.022540877 -0.040672287
0.066861615 -0.0028122712 -0.047919806 0.02398404 -0.0042465557 2.1302043e-05 -0.035895556 -0.021321336
-0.03763781 -0.05814568 -0.057414945 -0.044827662 -0.05939979 0.030619733 -0.012966731 -0.056022927
0.0075458987 -0.063845746 -0.025516167 0.025767863 0.049507968 0.05967796 -0.0001558598 0.024286576
-0.028845474 0.050468273 -0.0062676873 0.015856106 -0.030554704 -0.06266859 -0.041292958 0.01948317
-0.024219055 0.019768432 -0.0642915 0.052689616 0.0024527684 -0.017818976 -0.027741103 -0.060616232
0.029393965 -0.06590012 -0.010436239 0.04239372 -0.008079484 0.02774085 -0.0052466765 -0.07515495

linear2.bias f4 [256]
00000000: eb9d d73c a9ca 4e3d e87d 1dbe 2177 21bd
00000010: f117 edbc d770 95bd c88d 65bd a240 a1bd
00000020: 916e 02be a6af ccbd 425b bebc be5b 8b3e
00000030: 6ba8 f5bd 434a f93d aa47 debc 3f02 fc3b
00000040: 407a c6bd 01f1 f3bd 7051 b7bd 376f 22bd
00000050: 2960 04bc f8da 8e3b 1f13 13bd 4cdb 77bd
00000060: b85b 83bc 2c85 ccbd 2543 b1bc fae9 f5bd
00000070: fe15 4bbd c77e e9bc f69e f8bd 95da 3040
00000080: 31b0 2dbc 7fad f4bd b362 bfbc df70 1940
00000090: 4370 02bd 017b c9bd 87e8 8cbd dacd 8fbd
000000a0: 4edf 9fbc 2377 77bd 3042 debc 1b8b 923c
000000b0: 13dc 21bd 2994 33bd 8d10 53bd f949 9bbd
000000c0: 2442 36be 46ce 433c e095 bf3d 3751 8440
000000d0: 3502 e1bc 4ab3 d9bb a433 413d cb97 a9bd
000000e0: 6ebc b0bd ff56 b53c bf98 a6bc 7cab a53c
000000f0: 29ca 7abc 5239 f2bc efb4 76bc b94f a0bd
00000100: 56dd 15be d007 62bd 1be0 f33c 5585 973c
00000110: 4f17 85bd 0966 70bd dd82 b0bd 2e6b 45bd
00000120: 4b4f bbbd 90d0 91bb 84f5 0c3d 930a 9540
00000130: 320a 7f3c e459 4fbd 7129 acbd fe0e b9bd
00000140: aa41 003c 76bd c6bd a446 2ebd bb13 f63b
00000150: d7f7 3a40 5081 a4bd 1071 a23c 489f 9fbd
00000160: 9bea 19b9 5172 c939 0179 0ebd d8fe 8ebd
00000170: 4397 4bbd f193 aebd 48c6 82bd 1cbb 003c
00000180: 008c 85bd a920 fb3d 9172 09bd fd7a 21be
00000190: ca4d 9abd 01f8 e8bd c03e 78bd b0e7 0cbc
000001a0: c3fb bb3c 10c0 9e3c c21d babd ff69 98bc
000001b0: 171a d7bc 2e0e 073f 2afb c6bc fc4e e5bd
000001c0: b3a1 edbc a021 e6bc 4a96 fe3e 5c4c 9cbd
000001d0: 5ec9 9cbd 94b6 79bd 8ab6 41bd 9fe5 babd
000001e0: de61 bc3c 8d34 313d 94da 37bd b7f5 01bd
000001f0: 3569 1740 a6f5 473f 115a a5bd 7053 23bd
00000200: dd21 15bd cc27 dbbd 06a8 193d 30fa 8fbd
00000210: 8b10 18bd 50bd 4740 a25e 55be 92d2 a93e
00000220: 56d8 d4bd 8adb 04bd e6d3 7d3c 890a 1640
00000230: b2a1 243d e301 57bc 68de 023b 25a1 f2be
00000240: 0bed 90bd f642 e5bd 3ffc 233c 4bdb aabd
00000250: 372b aebc ea90 cfbc 1680 5bbd d4a8 173f
00000260: c8c9 a9bd 3113 73bd b7d7 c6bd 2f82 30bd
00000270: b7a8 70bd 6e33 dabd 0cbb dabd a373 a5bd
00000280: ba9b 333c b8e3 b0bd 2309 72bd cd12 64bc
00000290: 11af 873f 44e1 1cbe 363f 1dbe f7dd 0fbe
000002a0: 0145 74bd 0773 39bc 79d4 b1bd 264e febd
000002b0: 8ee8 7abd dd2e cabc 7cf4 5cb9 0d0f ca3c
000002c0: 53d4 91bd 7c03 d2bc feee 82bd af15 bbbd
000002d0: 4701 3abd b6cd efbd 2eb8 cd3c 83fd 42bd
000002e0: a0c2 adbc 5351 85bd 77c4 9c3c d359 e5bd
000002f0: 8b68 70bd b3ad 24be 7966 94bd ba01 85bb
00000300: 243c 99bd 0f66 263c 40bf b3bd 4f22 6dbd
00000310: 6d9f 95bb bb9c 703c 0b70 cc3c ae92 b2bd
00000320: 2db3 d5bd 9704 8bbd 8415 f7bd cd77 85bd
00000330: 304f debc 1425 77bd 771f b8bd b3e4 5bbd
00000340: 53f7 1cbd e6ce d0bd 1993 51be e98c 19bd
00000350: d60e 29bc 39df dcbb 997f fa3c 2be4 8fbd
00000360: 5530 59bd caee 41bd 7875 56bc 1a52 1abe
00000370: 53f5 ea3c 756d 543d 5c1e 34bd b4da 4bbd
00000380: d83c 943b 9125 08bd 133d a8bd 10ba aabc
00000390: d2ef aabd 39bc 24bd 0f5f 78bd eb6b 47bd
000003a0: 7c1a ddbd e4d0 11bd 6ca3 5dbb f951 ddbc
000003b0: 3256 b6bd f1d0 843d 4c3b 7fbc 1373 62bd
000003c0: 80ef efbc a84a abbe a2bd 95bd 038a 28be
000003d0: 0ed1 97bd e978 91bc 3053 f6bb 4405 923c
000003e0: 6808 6c3c c95e 5bbd 3648 3f3c b696 73bd
000003f0: aef6 87bd 349a 39bd 2fa3 6d3f 565f 84bc
0.026320418 0.05048624 -0.1538006 -0.03942025 -0.02894208 -0.07296913 -0.056043416 -0.07873656
-0.1273749 -0.0999444 -0.023236874 0.2721843 -0.11995014 0.121723674 -0.027133781 0.0076906974
-0.09691286 -0.11911202 -0.0895108 -0.039656844 -0.008079567 0.004359599 -0.035906907 -0.060511872
-0.016034946 -0.09986338 -0.021638462 -0.12007518 -0.04958152 -0.028502835 -0.121396944 2.7633412
-0.010601089 -0.11947154 -0.023362493 2.397514 -0.031845342 -0.09837914 -0.068802886 -0.07021685
-0.01951566 -0.060416352 -0.02713117 0.017888596 -0.03951652 -0.04384247 -0.051529456 -0.075824685
-0.17798668 0.011951035 0.09354758 4.134914 -0.027466873 -0.0066436874 0.04716839 -0.08280905
-0.0862969 0.02213621 -0.020336507 0.020223372 -0.015306988 -0.029568348 -0.015057786 -0.07827706
-0.14635214 -0.05518323 0.029769948 0.018496195 -0.064985864 -0.05869106 -0.0861871 -0.048197918
-0.09145983 -0.0044499114 0.03441383 4.657541 0.015566396 -0.050622836 -0.08406342 -0.09036063
0.0078281555 -0.097041056 -0.042547837 0.0075096763 2.921377 -0.08032477 0.019829303 -0.07794052
-0.00014678614 0.0003842288 -0.034783367 -0.06982201 -0.0497048 -0.08524311 -0.063854754 0.00785711
-0.065208435 0.12262089 -0.033556525 -0.15769573 -0.07534368 -0.11375428 -0.060606718 -0.0086001605
0.022947198 0.019378692 -0.09087707 -0.01860523 -0.026257558 0.5275601 -0.024289686 -0.11196706
-0.029007768 -0.028092206 0.49724036 -0.07631752 -0.07655595 -0.060965136 -0.047293223 -0.09125828
0.022995885 0.043263007 -0.044886187 -0.031728473 2.3657963 0.78109205 -0.080738194 -0.039874494
-0.036409248 -0.1070095 0.037513755 -0.07030141 -0.03712515 3.1209297 -0.20836881 0.33168465
-0.10392825 -0.03243593 0.015492415 2.344393 0.040193267 -0.013123008 0.001996899 -0.4738857
-0.07076462 -0.111944124 0.010008871 -0.08342608 -0.02126084 -0.025337655 -0.05358895 0.59241986
-0.0829044 -0.059344474 -0.09709113 -0.043092903 -0.05875465 -0.10654341 -0.106802076 -0.080786966
0.010962421 -0.08637184 -0.059090745 -0.013920498 1.0600301 -0.15320307 -0.15356144 -0.14049517
-0.05963612 -0.011318929 -0.08683104 -0.124172494 -0.061256938 -0.02468055 -0.00021071912 0.02466538
-0.07120576 -0.025636427 -0.063932404 -0.09134995 -0.045411374 -0.11709158 0.025112238 -0.04760505
-0.021210968 -0.06509652 0.01913665 -0.11198773 -0.05869345 -0.16081886 -0.072461076 -0.0040590437
-0.07482174 0.010156169 -0.087767124 -0.057894047 -0.004566124 0.014685805 0.02495577 -0.08719383
-0.10434566 -0.06787985 -0.12064651 -0.06516991 -0.027137369 -0.060338095 -0.089903764 -0.0536849
-0.038321804 -0.10195713 -0.2046627 -0.037487898 -0.010318479 -0.0067404774 0.030578421 -0.070259415
-0.05302461 -0.047346868 -0.01308953 -0.15070382 0.028681433 0.0518622 -0.043974265 -0.04976912
0.0045238547 -0.03323895 -0.08214774 -0.020840675 -0.08346523 -0.040218566 -0.06063753 -0.048686903
-0.10796067 -0.035599604 -0.003381933 -0.027016627 -0.08903159 0.06485165 -0.015578102 -0.055285525
-0.029289007 -0.33455396 -0.0731156 -0.16458897 -0.07412921 -0.01775785 -0.007517241 0.017824776
0.014406301 -0.05355719 0.011674931 -0.0594699 -0.06638847 -0.045313075 0.92827123 -0.016158741

linear3.weight f4 [4, 256]
00000000: 75fd e7bc 97e6 db3d c899 35bd 90c1 43bc
00000010: 059f 53bd 893f a73c f81a ecbc 6b6e b1bc
00000020: fc57 5bbd b820 ddbc 6f55 52bc 09ff 993d
00000030: f5b2 a63d 750e 013d d65c a43b 3d04 3ebd
00000040: 4ff0 593c 9ea1 51bb 172a 4a3d 3493 a5bc
00000050: 53c5 a13c e154 7abc 4c3d 483d b6e2 693d
00000060: a202 6bbd faef 1ebc 0688 cd3b c8b0 24bc
00000070: a07f 843c bdfb 82bb 9996 db3b 3171 ff3d
00000080: 7ed7 ebbc 4e32 cb3d 9e15 233d b5bb bd3e
00000090: 12ec 653d 4352 2d3c 043c 453d c940 91bc
000000a0: b4b1 123c 59d9 41bc 8d0f dcbc a20e 553c
000000b0: 0b76 70bd 7392 8f3d e739 0ebb 2aa5 7abb
000000c0: 451d dd3c b800 253c d969 d33c 75b8 813e
000000d0: d6a1 71bd b802 a33c fac4 453d 4445 f0bc
000000e0: 69bd c23d 48d0 abbc 84a2 493c ec8f 67bd
000000f0: 0087 9d3a 18ef a83b 2d1a 3f39 f889 9a3d
00000100: 2e7c 8238 4c90 2939 ec93 2d3d a063 febb
00000110: 9f0b 2e3c d4db 0b3d d086 ecbb 1ee5 14bd
00000120: 97e2 143d 929f f1bc 00e7 353c f235 b23e
00000130: 05f3 073c bd1a a63c 8018 1cbc 542e 7b3c
00000140: 29ad 293d f7b7 363d 30ce b53b 985d a93d
00000150: a6de 533e caf0 82bc bd1e d43d 3171 143b
00000160: 770d b3bc b0bd ab3d d6c3 6b3c ca20 fa3c
00000170: 0c2b 403d 5c93 5f3d 7087 c43b e1f2 133c
00000180: 865d edbc 2ee0 fe3c 3537 c43d 2181 37bc
00000190: 854d 5e3d 8a84 45bc d54e 80bd 44ae dcbb
000001a0: 5fe3 203d 485e 2cbd 62e3 3a3b f571 e23a
000001b0: 5639 17bd 95b3 de3d e002 12bd dc77 ef3c
000001c0: 0fee 703c 9bf8 ec39 1536 a93c b909 cb3c
000001d0: 0583 17bd 8440 5f3d 1907 cfbc 7ced 2e3d
000001e0: 93ca 7e3c 39b2 d83c 1909 253d b4da 04bd
000001f0: b117 bc3d f739 493e 2971 213d 0d4f 5dbd
00000200: 60b8 20bb 7a0f c9bc f17c ca3c a68c fcbc
00000210: 7d00 063d d237 903d aa24 a53d d07b 7a3d
00000220: 2453 053d 8ce3 cabb 4165 b23c db82 0d3e
00000230: 8013 073d 3803 743d 41f4 c83c c39c cfbc
00000240: 6c11 ab3d 1ef9 de3c 030b 1a3d c6e0 6a3c
00000250: e105 813c d3f2 bb3c bd48 623d 46fc a83d
00000260: 5765 07bd 0896 5dbc eed0 363d 25c0 45bd
00000270: 84ce e2ba f489 d03c 4e1d 053e cf70 b43d
00000280: 0d18 333c 8a14 27ba d029 57bd c063 f83c
00000290: 868a 503d 5654 3d3e af61 b53d 708e 8e3b
000002a0: d130 3c3b e2c7 413d 7751 16bd 88cb a53c
000002b0: 13e0 b13d bf93 eabc 5548 30bd 4c5c 9d3b
000002c0: 1ce9 113d 1ed0 babc d0ea efbc eab1 a33c
000002d0: 61d7 813b 27f2 19bd 8a8c 40bd 76cc 463d
000002e0: a146 b23d b103 1f3d b5c4 4e3d d8ec 0cbd
000002f0: 1c2a b63c a62c b7bc 1cf3 493c 2083 193c
00000300: da74 af3c ccf9 dbbc 0d9f 72bc d56e 4d3d
00000310: 7b37 4a3b 5084 933c 07ad 04ba 85fd ab3a
00000320: be50 9fbc 53a3 1a3c 506f 03bc 9954 80bb
00000330: d9b2 993c dae3 c73c 1449 243d 36a8 c2bc
00000340: 7f60 a8bb 08f5 0e3d fea5 bc3c 517d 633d
00000350: 3fd0 ab3a f07a b6bd 270b 36bc 93fc c7bc
00000360: 0dc7 963c d068 6b3c b400 f33c c101 693d
00000370: 7b91 f2bc 62eb 94bc f48b 1dbc 2b45 703c
00000380: 4f71 d4bb 94c1 233c 561c ef3b 00fb 60bc
00000390: 9277 cebc b4ab 8c3a bb50 cbbc be21 f8bc
000003a0: 3c99 ecbc d242 a5bc 4083 a93c 92a9 393d
000003b0: efe8 4b3d 2358 e7bc a248 e23c eb0d d73c
000003c0: 42cd 43bd 8582 543b 7c1e c53c d676 ee3c
000003d0: fa45 7e3d 28e8 f33c 3973 b03c 94c1 1fbd
000003e0: 585f 48bd a354 863c 1598 2abc e54c 793d
000003f0: 83b8 36bc 3f48 2ebd 4509 773d fe21 eabc
-0.0283191 0.10737341 -0.04433611 -0.011948004 -0.051665325 0.020416038 -0.028821453 -0.021659097
-0.053550705 -0.02699314 -0.012837752 0.07519347 0.08139602 0.031507928 0.0050159497 -0.04639076
0.013301923 -0.00319872 0.049356546 -0.020211793 0.019747412 -0.015279026 0.048886582 0.057100974
-0.057375558 -0.00970077 0.006272319 -0.010051914 0.016174138 -0.0039972947 0.0067013022 0.124727614
-0.028789278 0.09921704 0.039815538 0.37057272 0.056133337 0.010578695 0.04815294 -0.017731087
0.008953501 -0.011831605 -0.026862884 0.013003977 -0.058706325 0.07010355 -0.0021701993 -0.0038245418
0.026991496 0.010070972 0.025807308 0.25336042 -0.05899223 0.019898757 0.048283555 -0.029329903
0.09508783 -0.02097334 0.012306813 -0.05653374 0.0012018383 0.0051554553 0.0001822493 0.07545847
6.222013e-05 0.0001617085 0.042377397 -0.007763341 0.010622888 0.03414519 -0.0072182193 -0.036351316
0.036348905 -0.029495034 0.011102438 0.34806782 0.008297686 0.020276422 -0.009527326 0.01533087
0.041424904 0.044609036 0.005548261 0.08269805 0.20690402 -0.015983958 0.10357425 0.0022650475
-0.021857006 0.083857894 0.014389953 0.030533213 0.046916053 0.054583892 0.0059975907 0.009030075
-0.02897526 0.031112757 0.095808424 -0.01120022 0.054273147 -0.012055526 -0.06265036 -0.0067346413
0.039279338 -0.0420821 0.0028516878 0.0017276393 -0.036919914 0.10874096 -0.035647273 0.029231958
0.014705195 0.00045198653 0.020655671 0.02478491 -0.036990184 0.054504886 -0.02527194 0.04270695
0.015551227 0.02645217 0.04029188 -0.032435134 0.09184206 0.19651018 0.03941456 -0.054030467
-0.0024523959 -0.024543513 0.02471778 -0.030828785 0.03271531 0.07041897 0.08063634 0.061153233
0.032549992 -0.0061916765 0.021776797 0.13819449 0.03297758 0.059573382 0.024530532 -0.025343304
0.08352932 0.027218398 0.037608158 0.014335817 0.015749874 0.022942936 0.05524515 0.08251242
-0.03305563 -0.01352454 0.044632845 -0.048278946 -0.0017303978 0.025456406 0.1299946 0.08810579
0.010931027 -0.0006373605 -0.05253011 0.030321002 0.050913356 0.18489203 0.08856522 0.004350476
0.002871562 0.047309764 -0.036698785 0.020238653 0.08685317 -0.028634904 -0.04303773 0.0048022624
0.0356227 -0.022804316 -0.029286772 0.019982297 0.0039624427 -0.03758445 -0.04700903 0.048534833
0.08704878 0.03882188 0.050480563 -0.03440556 0.022236876 -0.022360157 0.012326028 0.009369642
0.021418024 -0.02685251 -0.0148084285 0.050154526 0.0030855823 0.018007427 -0.00050611835 0.0013121819
-0.01944768 0.009438354 -0.008022144 -0.003916335 0.018762039 0.02440064 0.040108755 -0.02376185
-0.0051384564 0.03490165 0.02302837 0.055539433 0.0013108327 -0.08910167 -0.011111057 -0.024412429
0.018405462 0.014368251 0.029663421 0.05688644 -0.029610386 -0.018178646 -0.009615887 0.014664928
-0.006483234 0.009994883 0.007297079 -0.013731718 -0.0252035 0.0010732324 -0.024818769 -0.030289527
-0.028881662 -0.020173464 0.020692468 0.04532773 0.04978269 -0.028240269 0.027622525 0.026251754
-0.04780317 0.0032426429 0.024062388 0.0291094 0.062078454 0.029773787 0.021539317 -0.03900297
-0.048919052 0.01639778 -0.010412236 0.060864348 -0.011152389 -0.042549368 0.060311574 -0.028580662

linear3.bias f4 [4]
00000000: e60d 1a40 3b2b 5040 3352 f03f 0a65 1d40
2.4070983 3.2526386 1.8775085 2.459292
