model_level2/model.pth (torch, 275271 bytes, 6 tensors)

linear1.weight f4 [256, 5]
00000000: b113 f93a 67d9 e1bc 4b04 4b3f 10e1 d9bd
00000010: f40a 8bbd c084 123e 214f afbc 830e 2341
00000020: f44e a7be 50e5 863e 9b05 a5be e568 cbbe
00000030: a8c9 983d 0afa 48be 428f a7be fe1a c1bc
00000040: d78c 9d39 ad14 a0be e48f bfbe 8159 67be
00000050: c2c7 16be 3736 af3b 29cb af40 fe3b d53e
00000060: 7af5 55be 9c16 fcbe 0dfb 613e 97d6 01c0
00000070: fc00 7f3e 05bb 5dbe 9708 d6bd fdb1 073f
00000080: 7198 57bf 73bb dbbe d4c9 413e f4b7 0bbc
00000090: 86d4 64bd c543 6340 460d c1be bc9f 9a3e
000000a0: 42aa 50bf d755 ab3e e103 6c40 2aa3 afbe
000000b0: e0cc cdbc a495 9a3d 21fa e6be 7c4a b83f
000000c0: b206 d2be 2de2 b2be b8b2 d3be 4880 09bd
000000d0: f0a5 193e 00c0 e43e 16c6 d03e 61f1 cd3c
000000e0: 0505 86be aafd 4dc0 f2f8 c53e 749a a2bd
000000f0: 25aa 6b3d 939f aebe 68cf 783f 68c6 9dbd
00000100: 00ff 603e 79f7 673c fa32 c8bd 8872 94bf
00000110: c7e5 e1be 72f4 6dbe d04c f9bd 9c1b c3be
00000120: b02a 9abc d072 303e b8e3 643e 58dd 043d
00000130: 4bd0 87be 7e84 14be ef44 91be 70d1 89bc
00000140: 40d3 973c 68d5 f2bd e549 59be 3863 083e
00000150: 5dc8 bdbe 6ab0 8cbc fe93 c53b e425 8fc0
00000160: 50c5 1c3e 56ef 953e 7fc2 093e 7d03 2dbc
00000170: 3bfb 1441 4019 ca3e 30fe 893d d3ba 30be
00000180: 0929 973d 9cf4 08c0 6666 d93e 4c38 a83e
00000190: fb1b b0be 8419 1ebe 127e 46be 903b 87bd
000001a0: d4d0 62be a947 273d 7328 59bc 583a 0cc1
000001b0: f403 883e e017 593d d659 453d a2c3 90be
000001c0: 7d93 afbd 7441 2e3e 3087 44bd 8d17 d3bc
000001d0: 8795 d13a d2fe d23e 70d1 af3d 40c5 cbbe
000001e0: c937 8bbc 6f7a e83a ac0f a53e 5058 3b3e
000001f0: b0c1 483e 383b cdbe 40e8 a5be bc7b 88bd
00000200: 103b 4abd e218 9e3e 5eeb c93d dcf4 1abf
00000210: 934a 71bf a020 eb3c 4c28 543e 1044 d9be
00000220: 554e 2c3e f051 05c0 a0c3 503e 383b c2bd
00000230: b09e cf3c 737a aabe 9a8d ca3e c8e7 dcbd
00000240: 7647 a33e 804f 773b 4771 30be 1c47 acbe
00000250: 0cfb 2f3e f8e8 533e 12d6 cbbe 4024 fd3c
00000260: a157 d8be e499 06be e813 34be 6513 773b
00000270: 4bc5 0ebe 5626 1640 14df c8be 3c29 dc3e
00000280: 0211 22be eb90 c53e 12fe a43f 6056 5cbc
00000290: 3473 85bd 59fd c4be 00ca 94be 9905 79be
000002a0: f098 ac3d c0fb 6f3e b3ae 2f3d 880b 8dbe
000002b0: 8d75 343d 2f0a c0be 4a49 cc3e 80e5 92bc
000002c0: d366 59be a0a4 113c c834 773e 5600 86be
000002d0: 09a1 ed3a 7e41 7fbd cfe2 9b3f 3db5 cebe
000002e0: e803 913d 40fe f93c ac95 a6be e028 9fbe
000002f0: 3428 833e 10f6 2c3d d727 62be 3e54 82be
00000300: 4cb7 c23e c06c d53e d8b9 bc3d 6aeb 00be
00000310: bd58 ff3b 4cd5 613d a0bc 923e 1840 4c3e
00000320: 4d49 9dbe 9452 363d 6dc8 a2bf 2ce5 3bbe
00000330: dc45 5b3e 09ee c63c 0a86 2dbe 03ed be3f
00000340: 8325 5fbe 78a7 713e 4ed9 0bbe 644b 9abe
00000350: 34bc 9d3e 607c e6bc b55a c3be ac28 22be
00000360: d8b6 85be 8464 f5bd c603 31be 69dd e4be
00000370: f1d7 d9be 08ba 2b3d cfdb bdbe 30c3 c2bc
00000380: b90a ccbe a205 a23d f2bd f8be bc71 23bf
00000390: 0885 653e d698 e33e a8f3 eebc 8c28 663a
000003a0: dcbc 223e 005f d53b c86e 68bd b3c6 d6be
000003b0: dab6 8a3d 5edb 853e 20b3 7abd 38bd d13e
000003c0: cc65 cf3c 2eac 1fbe a7eb 3e3f 115f e1be
000003d0: b0a5 5f3e c876 97be b015 38be 54c0 663e
000003e0: 5c98 a4bd 3831 1dbe d22c b8be 90b5 713e
000003f0: a4d6 b5bf 9cbd 4b3e 6ef2 8fbe 8283 a73d
0.0019003061 -0.027569486 0.79303426 -0.106386304 -0.067891985 0.14308453 -0.021400036 10.191043
-0.32677424 0.26346827 -0.3223084 -0.39728466 0.07460338 -0.19626632 -0.32726485 -0.023572441
0.00030050307 -0.31265774 -0.37414467 -0.22592737 -0.14724639 0.005347039 5.49355 0.41647333
-0.20894423 -0.49236 0.22068425 -2.0287225 0.2490272 -0.21653374 -0.10450857 0.53005964
-0.8421698 -0.4291645 0.18924648 -0.008527745 -0.05586674 3.5510113 -0.3770544 0.30199993
-0.8150979 0.33463928 3.6877367 -0.34304172 -0.025122106 0.07548073 -0.45112708 1.4397731
-0.41020733 -0.34938183 -0.4134729 -0.033569604 0.15004706 0.44677734 0.40776128 0.025139512
-0.26175705 -3.2186074 0.38666493 -0.07939616 0.05753531 -0.3410612 0.97191477 -0.077038586
0.21972275 0.014158123 -0.09775348 -1.1597452 -0.4412062 -0.2323778 -0.12172854 -0.38107002
-0.018819183 0.17231297 0.22352493 0.032437652 -0.26526102 -0.14503667 -0.28372905 -0.0168235
0.018533349 -0.1185711 -0.21219595 0.13319099 -0.37066928 -0.017173965 0.006029605 -4.4733753
0.15309644 0.2928416 0.134531 -0.010559914 9.311336 0.3947239 0.067379355 -0.17258768
0.07380874 -2.1399298 0.42460936 0.3285545 -0.34396347 -0.15439421 -0.1938403 -0.066031575
-0.22149974 0.040839825 -0.013254273 -8.764244 0.26565516 0.053001285 0.048181377 -0.28274256
-0.08573053 0.17017156 -0.047980487 -0.025768066 0.0015989997 0.41210037 0.08584869 -0.39798927
-0.016994374 0.0017736683 0.3223852 0.18295407 0.19605136 -0.40084243 -0.32403755 -0.066642255
-0.049372733 0.3087836 0.09859346 -0.60529876 -0.94254416 0.02870208 0.20718497 -0.4243474
0.16826756 -2.083126 0.20387125 -0.09483951 0.025344223 -0.33296546 0.39561158 -0.10786396
0.31890458 0.0037736595 -0.17230712 -0.33648002 0.1718561 0.2069434 -0.3981176 0.030901074
-0.42254356 -0.13144642 -0.17585719 0.003770077 -0.13942449 2.3460898 -0.39232695 0.4300021
-0.158268 0.38587126 1.2890036 -0.013448328 -0.06516114 -0.3847454 -0.29060364 -0.24318542
0.08427608 0.23435879 0.042891216 -0.2754786 0.044057418 -0.3750777 0.39899665 -0.0179317
-0.2123063 0.008889347 0.24141228 -0.2617213 0.0018129657 -0.062318318 1.2178591 -0.4037265
0.07080823 0.030516744 -0.32536066 -0.31085873 0.2561661 0.04222685 -0.2208551 -0.25454897
0.3803047 0.41684532 0.092151344 -0.12589803 0.007792561 0.055135056 0.28659534 0.19946325
-0.30719987 0.044512346 -1.2717415 -0.18349141 0.21413368 0.024283426 -0.16945663 1.491608
-0.21791653 0.2359904 -0.13657114 -0.30135643 0.3080765 -0.028135478 -0.3815514 -0.15835828
-0.2611606 -0.119820625 -0.17286596 -0.44700173 -0.42547563 0.04192546 -0.37081763 -0.023774713
-0.3985193 0.079112306 -0.48582417 -0.6384542 0.22414029 0.44452542 -0.029168919 0.00087798457
0.15892357 0.006511569 -0.056746274 -0.4194847 0.067731574 0.26143926 -0.061205983 0.40964675
0.025317095 -0.15593025 0.74578327 -0.44017842 0.21840549 -0.2958281 -0.17977023 0.22534305
-0.08036873 -0.15350807 -0.35971695 0.23604417 -1.4206128 0.19896549 -0.28114647 0.0817938

linear1.bias f4 [256]
00000000: 27e4 c0bd 03d0 8c3f ac6b 2e3e 6af7 b0be
00000010: c659 833d 43d3 99bf 7094 a53d 5cee 2e3e
00000020: aebb 863f da04 5abe 6164 82be 1fc7 39bd
00000030: 1cdf b7be 987c 30bd 00d1 93bc 4006 a4bd
00000040: 2890 8a3e edb4 84bf c6b7 0c3f 8cc1 48bd
00000050: 5edd d7be ba6d c5bf de10 b2be ffde 32be
00000060: a71e 23bd 48e5 7b3e 0db2 7dbe 4ff1 78be
00000070: 2964 d9be 1677 a8be 26a0 c2be 484a b93e
00000080: 8954 213f 3813 1d3e b048 9b3e 2abd 32be
00000090: 6311 8ebd c0eb bdbb 1824 90bd b2b0 14bf
000000a0: 8d87 0fbf 18e3 aa3e 002a 173e 6888 c93d
000000b0: f9c5 b6be 724d d73d 3f76 d83e bc33 db3b
000000c0: 8590 af3d 1c48 0b3e 062e 9bbf 0790 03be
000000d0: 6b22 00bf 623b a1bd 080b e0be 28ad 243e
000000e0: 3d6f a1be e506 c93e 65fa 183f 9e54 bb3e
000000f0: 32d6 903e 7028 10bf eb3f 023f 325a bc3e
00000100: 3685 b3be 14fc 1c3f 128b 8dbd 3218 c4be
00000110: 9093 083e aedf 893e 54b9 c33e e23a 873e
00000120: 28a1 3e3f 8c40 0cbf df3f 19be 50c9 89be
00000130: 3d77 8a3e 93bb 853e b4fe 8b3e da3e 9ebe
00000140: 6d3e 2e3f fca2 263e 50de ff3d 0e6b 6bbe
00000150: 5ca9 13be c0a7 783e 8624 b43f 9733 95bd
00000160: 4aa7 90be 3aee 38be 7358 ef3e 9793 aebe
00000170: 1632 26bf 33ae fabe ef0c 42be f45c 0dbf
00000180: 7ba1 31bf 5820 ccbd 6ee4 14bf c085 90bd
00000190: d639 1fbe 03cc 9bbd 086f 9bbe 37c7 583f
000001a0: 745d bcbe d2e3 5fbe d140 65be 0069 3dbe
000001b0: ec65 453e fe4e d73e 3a36 51be 2ac7 983f
000001c0: 858e d6be f157 ed3c 40e2 82bd ac11 4abe
000001d0: b897 6a3e 3170 6f3c 22f3 fb3e 7c9c d3be
000001e0: a938 583e fba2 2b3f 40f4 b83b 7c5f aebc
000001f0: 60d9 7f3d 9181 343e ed72 67be b4db a2be
00000200: d0fd b6bf ef17 ec3e 0569 a03f f9b2 a53e
00000210: d8ef 8ebf 685e 96be 70a7 e53d 4e14 6dbe
00000220: 03f9 1b3e c24f 56be de14 b03e dd11 aabd
00000230: 62e9 343e 3f2e 8ebe 2800 9fbe f78f 02bf
00000240: 5d50 b9be a70b 56be 405e 943d 9a9c 36bd
00000250: 9858 f73e ae36 a63e 7a41 b2be 90cc bf3e
00000260: fed1 073e 3a3a e93b 4af0 86be 9442 8abd
00000270: c815 84be 65b2 1abf c455 bd3e 1149 8e3d
00000280: 7b04 38bd d292 ac3e 987c 843f 7370 343f
00000290: a0f6 03bd 141b e0bd 74f6 04bf da61 c73c
000002a0: 1c42 90bd 4201 aa3e 964c 08be d080 1a3e
000002b0: 8f00 a13e 6afb 0ebf dc4c 92be 9d70 1abd
000002c0: 354e 53bc 9aaf 8c3f cd7b 57bf b5ab 1fbf
000002d0: 8fef 24bf ab94 73bd fa5e 45be e784 913e
000002e0: 9746 833e 0b56 01bf 082a f2bd d8e6 04bf
000002f0: c4aa 9a3e d844 e5bd 9e2a ac3d 573b b3be
00000300: 7f54 d83e 7d98 ee3d 103c 9e3d 0e45 8ebd
00000310: 00c1 013f 30b1 b0be f43a 713e f551 c1be
00000320: c1b4 d7be fbdf d8bd e8ab 04bd 90ff d13c
00000330: 14bd 343e d89e d33d 141a 9fbe 5341 82be
00000340: 1efa 33bf baf0 bfbe 43c9 85bf b907 32be
00000350: a5dc 6dbe 20d6 963e 0c1b 4d3e ae34 34be
00000360: 9696 0abe bbc1 303f 16eb 38bd c417 a9bf
00000370: 8217 ccbf a960 f43c 938c 1a3e 01c8 f8be
00000380: 5ac6 e8bd 600c 6b3d 6aa1 2ebe 2cb7 1a3f
00000390: f609 183e 4c14 a8be 80ad 993e 76d8 c93e
000003a0: d9d8 123f 3b1d 813f a435 5b3e 9323 2abe
000003b0: dd50 f5be 7514 cbbe 38fe 213e f704 5fbe
000003c0: 83f9 a63e 02b0 8bbe 33c6 6bbe 2f80 003f
000003d0: 60e2 253e 77b1 84bf 1067 6c3d 8509 b83e
000003e0: eef2 b73e 4d27 00be 73d6 81be 5abe 1b3f
000003f0: e4f6 01bf dc4d 0dbf a2e6 c5bf 3a2c 5b3c
-0.094185166 1.100098 0.17033261 -0.34563762 0.06413607 -1.2017597 0.08084953 0.17083114
1.0526025 -0.21290913 -0.25467208 -0.045355912 -0.35912406 -0.04308757 -0.018043995 -0.080090046
0.27063107 -1.0367714 0.54967916 -0.049012706 -0.42161077 -1.5424111 -0.34778494 -0.17467879
-0.039824154 0.24599183 -0.24774952 -0.24310802 -0.4245923 -0.32903355 -0.3801281 0.36189485
0.63019615 0.15339363 0.30328894 -0.17454973 -0.0693691 -0.005795926 -0.07038134 -0.58082116
-0.5606621 0.33376384 0.14762115 0.098404706 -0.35697916 0.105128184 0.42277715 0.006689517
0.08572487 0.13601726 -1.212342 -0.12847911 -0.5005252 -0.078726545 -0.43758416 0.16081679
-0.3153018 0.39263073 0.5975707 0.36587995 0.28288418 -0.563117 0.5087878 0.36787564
-0.3506257 0.6132214 -0.06911291 -0.3829971 0.1333754 0.26928467 0.38227332 0.26412112
0.74464655 -0.5478599 -0.14965771 -0.26911402 0.27044097 0.2611967 0.2734276 -0.30907327
0.68064004 0.16273111 0.124935746 -0.22990057 -0.14420074 0.24282742 1.4073646 -0.072852306
-0.2825263 -0.18059626 0.4674717 -0.34096977 -0.64920175 -0.48961028 -0.18950246 -0.5521996
-0.69387025 -0.099671066 -0.58161056 -0.07056761 -0.15549406 -0.076072715 -0.30358148 0.8467898
-0.3679005 -0.2186425 -0.22388007 -0.18497086 0.19277161 0.42052454 -0.20430842 1.193578
-0.4190561 0.028972598 -0.0639081 -0.19733304 0.22909439 0.014614151 0.49208933 -0.41330326
0.21115364 0.67045563 0.0056443512 -0.021285765 0.062463164 0.1762755 -0.22602434 -0.31808245
-1.4296207 0.4611201 1.253205 0.32363108 -1.1166945 -0.293689 0.11213577 -0.23152277
0.15231709 -0.20928863 0.3439092 -0.083041884 0.17667153 -0.27769658 -0.31054807 -0.5100092
-0.36194125 -0.20902883 0.07244539 -0.04458294 0.4830978 0.32463592 -0.3481558 0.37460756
0.132637 0.007117537 -0.263552 -0.0675098 -0.25797868 -0.6042846 0.36979496 0.0694753
-0.044926148 0.33705765 1.0350523 0.70484084 -0.03221762 -0.10942665 -0.5193856 0.024338651
-0.07043859 0.33204085 -0.13310465 0.150882 0.3144574 -0.5585238 -0.28574264 -0.037705053
-0.012897064 1.0991089 -0.8417328 -0.6237138 -0.6442804 -0.059467953 -0.19274512 0.2842171
0.25639793 -0.50521916 -0.11824423 -0.5191474 0.3020841 -0.111947715 0.08406566 -0.3500621
0.42251965 0.116501786 0.077263 -0.06946765 0.5068512 -0.34510183 0.23557645 -0.3775784
-0.42130092 -0.10589596 -0.032390505 0.025634557 0.17650253 0.103330314 -0.31074584 -0.25440463
-0.70303524 -0.37488347 -1.0452045 -0.17385758 -0.232287 0.2946024 0.20029849 -0.1759822
-0.13534006 0.6904561 -0.04514607 -1.3210378 -1.5944674 0.029831247 0.15092687 -0.4859009
-0.113659576 0.05738485 -0.17053762 0.6043575 0.1484755 -0.32827985 0.30015182 0.3942296
0.57362133 1.0087045 0.21407181 -0.16615133 -0.47913256 -0.39664045 0.15819633 -0.21779238
0.32612237 -0.2728272 -0.23024826 0.5019559 0.16199636 -1.0366658 0.057715476 0.35944763
0.35927528 -0.12514992 -0.25358924 0.6083733 -0.5076735 -0.5519693 -1.5461009 0.013377244

linear2.weight f4 [256, 256]
00000000: 82c9 4e3d 8b85 453c e0e1 9a3b b261 22bd
00000010: ee69 7bbd 1972 82bd b7fa 57bd 648c 84bc
00000020: c2d4 c4bb c716 03bd 30ed c43b 0583 4f3c
00000030: 367d c5bc a1c2 00bd 285d 73bd 805c 47bb
00000040: b42a b33c 06f2 c439 24f9 61bd dba3 12bd
00000050: 1efa 453d c55c b4bd 30b9 3a3d 5071 5d3d
00000060: 6c5f b9bb 9801 2e3d 6a7d 833d b027 ff3c
00000070: 7e54 033d 7820 44bd 6cd0 133d 0d86 073c
00000080: 63c3 563d 6a1e 6e3d dc0e 073d 9431 883c
00000090: ca79 bfbb 8cf1 063d 28c8 e5bc 31fc 6ebd
000000a0: 6268 a43c 3767 133c 3088 653d 4aaa 453d
000000b0: 06df 343d e290 133d f8a5 bebc d96f 813d
000000c0: a374 2fbd dabc 6fbd 7605 0c3c c4b8 473d
000000d0: 5178 5c3d aa44 a23c f094 96bb 1af1 7ebd
000000e0: 5cdf 123d 34b7 8c3c 791a c43a 4ed6 5abd
000000f0: 404d 03bd bad0 62bc 031e 273a b008 efbb
00000100: a600 543b c4c9 1c3d 5089 1c3d 400c 543c
00000110: a977 513a 0806 103c 2ca1 813c 519b 32bd
00000120: b30a 67bd c7e9 5bbd 160d 8e3b 16c2 4e3d
00000130: f4a1 d53c 9c6b 2d3d 420a 453d 3056 703d
00000140: f8cf 57bd a239 1d3d fe79 62bd 497a c83c
00000150: 1c19 d53c cc00 403d 0925 d83b 3a4b c1bc
00000160: 0e5c 2f3d 50b3 79bc db62 693c d8d9 7f3c
00000170: ad81 d8bc 9a21 59bd ba59 3c3d c600 0f3b
00000180: 1ce1 623c e0d4 a23b 3169 12bd 5c00 d63c
00000190: f5c8 b8bc 68de 9cbc 020c 803c 8968 f23c
000001a0: 3e0f 64bd ae23 7a3c b258 72bd d1c9 c03c
000001b0: e9c6 aabc 1018 813c 1653 853d f440 253d
000001c0: c886 29bd 350f 43bd a073 d53b f830 61bd
000001d0: 8930 103d 85f7 09bc 2855 353c dd30 943c
000001e0: fc19 99bd 222f 15bd 587b 1dbc cb54 74bb
000001f0: c0ee 2cbd e059 1e3d d643 453c 6ad7 813c
00000200: 08d9 87bd 928e 5f3c cc2d 86bb 37eb 533d
00000210: 11e3 b1bd a147 7abd 169c 47bd 63ac 6cbc
00000220: 7d96 32bd ea60 773d e864 853c c95f 7dbd
00000230: be89 503d 2052 ffbb 18b7 c93c 6916 4fbd
00000240: 00ca 2bbc 1ca4 14bc 209d 513b edcc 80bd
00000250: 070a 88bd be6b 1bbd b663 dbbc 9bfa 8ebc
00000260: 9d51 583d 5795 7b3c b3d3 de3c de32 e43b
00000270: f862 013d 0ce4 aa3c e4d2 75bd d584 1b3d
00000280: 1fad a83c 2047 193d 60e9 0bbd cf37 493d
00000290: 50e6 9dbb b4e2 eb3c 5328 593d 8a19 4139
000002a0: c0eb efba e114 07bc 8caa 813c ef4d 12bd
000002b0: d689 efbc 4f55 11bd 284e d3bc 98a0 863c
000002c0: 2d11 68bc 5daf 7ebc 6494 05bc cd9a 64bd
000002d0: a1cf 66bd dad9 eb3c e212 463d c837 403d
000002e0: fc41 5f3c 1a4f 5fbd 30fc bb3c 9589 a7bd
000002f0: 20b9 c93b e833 573c 38fb 3e3d b8c4 cdbc
00000300: e85d f73c f453 903b e29e 513d 1f83 37bc
00000310: 80ee 4abd a86f 743d 3cc5 723d e0a9 d8bc
00000320: 1a9a 2b3c e3bd 95bc 1064 3abc 940f e53c
00000330: 601e 1fbd 61fa 3c3d 4845 283c f784 d5bc
00000340: 5de9 8c3b 3254 383c 42c3 34bd 7e85 073c
00000350: 5e6b 2dbd 585a b9bc c83d 633d 4035 b7ba
00000360: 90aa 67bc a18e a43c 809a 8d3b 8996 5c3c
00000370: b595 0bbd 137a 5cbd da03 0cbc e17f 29bd
00000380: 185a 493d 84ad 1f3d 7653 9ebd 7cf1 b2bd
00000390: 0642 013c 50bb 5e3d c09c 293d 602f 733d
000003a0: 8215 74bd 5527 9cbc e2e2 6c3d 1ea8 67bd
000003b0: 7b7b 3d3a a9fe 69bd b05d ab3b 80b6 ce3b
000003c0: 6f64 b43c 748f a83c ab20 1ebd 2ca1 3a3c
000003d0: 74f6 533d 4cc0 3bbd dc55 8b3c 4b07 673d
000003e0: 0872 20bd 0ba5 21bc 69f0 b93b 5b9f dfbb
000003f0: c662 81bd 6a31 8f3c 549c 31bc 071d 06bd
0.05048514 0.012055765 0.0047266334 -0.03964395 -0.06138032 -0.06369419 -0.052729335 -0.016180225
-0.006006808 -0.032004144 0.0060097203 0.012665515 -0.024107557 -0.031435613 -0.059415013 -0.0030420125
0.021870948 0.00037564355 -0.05516924 -0.035800796 0.048334233 -0.08806757 0.045586765 0.05406314
-0.005657127 0.04248199 0.06420405 0.031146854 0.032063 -0.047882527 0.03608744 0.008271706
0.05243243 0.058134474 0.032973155 0.016625203 -0.005843376 0.0329452 -0.028049543 -0.058345977
0.020069305 0.008996776 0.05603808 0.048258103 0.044158004 0.036026843 -0.0232725 0.06320161
-0.042835843 -0.058529712 0.008546224 0.04876019 0.05382568 0.019808132 -0.0045953915 -0.06224165
0.035857543 0.017177202 0.0014961503 -0.053427033 -0.032056093 -0.01384371 0.00063750165 -0.007294737
0.003234902 0.038278356 0.03821689 0.012942374 0.0007990548 0.0087905 0.015823923 -0.043605153
-0.056406688 -0.053689744 0.004335056 0.050478064 0.026078202 0.042338952 0.048105486 0.058675945
-0.05268857 0.03838504 -0.055292122 0.024472373 0.02601295 0.04687576 0.006596212 -0.023595441
0.0428124 -0.015240505 0.01424476 0.015615903 -0.026429022 -0.05301056 0.045984007 0.002182053
0.013847616 0.0049692243 -0.03574485 0.026123218 -0.022556761 -0.01914902 0.015630726 0.029590862
-0.0556786 0.015267296 -0.059166618 0.023533734 -0.0208468 0.015758544 0.06509988 0.040345147
-0.041388303 -0.047621924 0.0065140277 -0.05497834 0.035202537 -0.00842083 0.011067666 0.018089706
-0.07475659 -0.036421902 -0.009611927 -0.0037281986 -0.042219877 0.03865993 0.012040099 0.015849788
-0.06633192 0.013644831 -0.004094815 0.05173799 -0.086858876 -0.061103467 -0.04873284 -0.014445397
-0.043600548 0.06039516 0.016283467 -0.061858926 0.05091261 -0.0077917725 0.024623439 -0.05055848
-0.010485172 -0.00907233 0.0031984523 -0.062890865 -0.066425376 -0.037944548 -0.026780944 -0.017453482
0.052812207 0.01535543 0.027200555 0.0069640717 0.031588525 0.020860694 -0.060015574 0.037968475
0.020590363 0.037421346 -0.03415811 0.04912549 -0.004818715 0.028794624 0.05301697 0.00018415428
-0.0018304512 -0.008244724 0.015828393 -0.035718855 -0.02924053 -0.035481747 -0.025794104 0.016433999
-0.014164251 -0.01554474 -0.008153055 -0.055811692 -0.056350354 0.028790403 0.04835785 0.046928197
0.013626572 -0.054518797 0.0229474 -0.081805386 0.006156102 0.013134934 0.0466263 -0.025118217
0.030196145 0.0044045392 0.051176913 -0.011200695 -0.049543858 0.059676796 0.05927013 -0.02644819
0.010473752 -0.018279022 -0.011376396 0.02796153 -0.038847327 0.046137217 0.010270424 -0.02606438
0.00430028 0.0112505425 -0.044131525 0.008271573 -0.04233872 -0.022626087 0.05547884 -0.0013977662
-0.014139786 0.020087542 0.0043213964 0.013463625 -0.03407832 -0.053827357 -0.00854584 -0.04138172
0.049158186 0.038983837 -0.07730763 -0.08737466 0.007889276 0.054377854 0.041409254 0.059371352
-0.059590824 -0.019061724 0.05783356 -0.056556813 0.0007228178 -0.05712763 0.0052296743 0.006308377
0.022020547 0.020576216 -0.038605373 0.011390965 0.051748708 -0.045837685 0.017008714 0.05640344
-0.03917125 -0.0098660095 0.005674411 -0.0068244166 -0.06317668 0.017479617 -0.010840494 -0.032742526

linear2.bias f4 [256]
00000000: 779f 2b3c 8687 05bd ef78 8abd 453b aebe
00000010: e9fd 48bc 7521 15bd 576c 87bd 4c36 73bd
00000020: 1e06 03bd f094 3abd 87eb 60bd 30cb e0bd
00000030: 2975 f7bb 87fc a03d 1d52 873c 3eff c1bd
00000040: e2e2 7fbd f95e bdbc 0f82 00bd 465e e0bd
00000050: 0159 103d c856 61bd ad5f d43c 6c01 5cbe
00000060: 0b8b 04bd 4f7c bfbd fcad 403e 76a8 3a3d
00000070: 2c2d 0fbe 727a abbd 4041 c5bc 4ab5 a7bd
00000080: cd2c 50bd ebba acbd 92a3 2d3d 96b1 a2bc
00000090: 9527 213d ea5f 4e3c e152 aebd d7a3 70bc
000000a0: 8390 fc3b cf0a aebd 07a4 14bb 8c8b 4fbd
000000b0: 767d eebc c271 a8bd aaa0 03be 4784 13bd
000000c0: e49f 303c e752 64bc db0f b8bd f4c8 753d
000000d0: 5e66 f13c 9705 8ebd ce41 1bbc c299 e2bd
000000e0: 576b 87bd 13e0 b4bd df68 40bd ac48 a9bd
000000f0: 2c78 713c a365 3ebd f9db 88bd 835d 94bd
00000100: b2e6 13c0 3ceb 22bd 59b3 b4bd cf04 2abc
00000110: 2dc3 183d c0a2 4bbd 991b 49bd 4e27 0cbd
00000120: 3c8b 44bd 5609 a8bd e071 c1bc 3b4c 103c
00000130: 77b9 d5bd 58e4 a4bd 65ba 1a3b 965e b0bd
00000140: 8181 dbbd 2094 e8bc 095c aabd 010c c9bd
00000150: daf3 babd d4b5 93bd 8888 06bc 9bdb 0abe
00000160: 7ada cebd bb09 05be 9397 88bc 025c 3abd
00000170: 3625 d6bd bc59 213d 9f44 c5bd 0ab1 59bd
00000180: 7bc6 b0bd 4cc7 5ebe 5d9f f5bd c728 d4bb
00000190: 703f 80bc 7117 0f3c d04b 07bd 9c2c 40bd
000001a0: 5dcd c6bc 6d67 1d3b d644 8a3c a4fb 703c
000001b0: 3b7b 01bd 8800 8cbd fcf4 dbbc 9e71 eebc
000001c0: 2f4a 3cbe b264 06bd 579b 9dbc 2bbd ec3b
000001d0: c240 5ebd 3b97 84bd f5e4 13bd d801 afbd
000001e0: 0f47 a7bd e561 dd3a 079c f4bd 8c6f 42bd
000001f0: 26ad c0bd c73c 32bd ca1b 8bbd 1685 23bd
00000200: d94e 0fbd 4aa1 54bc 244e c3bd 72f0 de3b
00000210: 3591 9bbd 1e09 05bc 1803 28ba 487a eebd
00000220: 30c8 53bd 804d 9ebd 60b5 99bd 0ed4 62bd
00000230: 36dd 82bb 93a6 4dbb e1ac a3bd 4f07 663c
00000240: d8c7 81bc 9bd6 fbbc 2ea7 45bd a12c c63c
00000250: 61fb 08bd b44a 8fbd d5bd 8ebd 4861 e5bc
00000260: 9311 d5bd a54b 8ebd d902 3d3b 1b84 0cbe
00000270: 760e b2bd a1ce c7bc 1f8c 92bc 0b50 babd
00000280: b00c 603d f96b 90bd 3d45 81bd 34c1 93bd
00000290: 4505 9cbd d159 c03c 59c9 adbd 90f0 b7bd
000002a0: 06bf ecbc 7836 18bd f449 a33c 4575 9abd
000002b0: fffc 25be 7ac9 8fbd d931 8dbc 3330 87bd
000002c0: 99e9 05bd e2ce aebd 7159 9fbd 4b3a 93bd
000002d0: 6a9b f9bd 638f 83bb 80c7 7b3c 8c6a cabd
000002e0: f5cc 22bd 5066 acbd 9b3c 7cbd 9d60 87be
000002f0: 234e bcbd 2232 41bd 22c3 8dbd 5f04 7d3f
00000300: 975b b5bd e485 8dbd 52d0 8cbd 35c9 d2bc
00000310: 0da4 66bd 14cb 783c 766e f7bc 2b91 89be
00000320: b030 96bd 019d 25be 4a05 e73c 2fc2 cb3e
00000330: b15d 98bd b0fc 74bd d32d fb3b ddab c7bd
00000340: 1518 203f cf92 80bd 80e6 59bd 3b1b c2bc
00000350: 40e5 49ba 7914 8ebd 52b2 5dbd dbce a1bd
00000360: 01d8 653c b0dc 0dbd c781 e5bd 2663 91bb
00000370: 97d8 c2bd 5d57 5dbd 5096 ddbd 5042 233e
00000380: ae47 cdbc 4ae2 ecbc 73f6 c93c 2706 e2bc
00000390: df06 e1bd 6f72 483d 6fbd 8abd fb7a bbbc
000003a0: 706a 26bc 1234 393c 01ae 3cbd 15ce 79bd
000003b0: d0c7 aebb efd2 b0bc c0dd e0bd a70c 553c
000003c0: b022 8ebd c960 46bd e4d9 e3bd 5d89 a9bb
000003d0: 0ccd cdbd a938 3bbb 9df7 753b c08e 993c
000003e0: 1d33 cdbd 2257 59bc e18b c2bd 7fa6 63bd
000003f0: fcc5 0d3c 25b5 303c 28cc 91bd b9e7 263d
0.010475031 -0.03259995 -0.067613475 -0.34029594 -0.012267568 -0.03640886 -0.06612461 -0.059377953
-0.031988256 -0.045552194 -0.054912116 -0.10976255 -0.0075518084 0.07860666 0.016518647 -0.09472512
-0.06247223 -0.023116576 -0.031374034 -0.10955481 0.03524113 -0.0550144 0.025924528 -0.21484917
-0.032359164 -0.09349882 0.1881637 0.045570813 -0.13982075 -0.08372964 -0.024078965 -0.08188875
-0.050823975 -0.08434089 0.04239232 -0.01986007 0.03934439 0.01259611 -0.08511902 -0.0146875
0.007707657 -0.08498155 -0.0022680776 -0.05067019 -0.029112559 -0.082248226 -0.12854257 -0.03601482
0.010780308 -0.013935781 -0.08987399 0.060006097 0.029467758 -0.0693466 -0.009476138 -0.11064483
-0.0661227 -0.08831801 -0.046975013 -0.08265814 0.014738124 -0.046483647 -0.066825815 -0.072443984
-2.3109555 -0.03977512 -0.0882327 -0.010377123 0.03729551 -0.049715757 -0.049098585 -0.03421717
-0.047984347 -0.08204906 -0.02361387 0.008807237 -0.10435765 -0.080513656 0.0023609635 -0.08611791
-0.1071806 -0.028390944 -0.083183356 -0.09816743 -0.09128542 -0.07212415 -0.0082112625 -0.13560335
-0.10100265 -0.12991993 -0.016673839 -0.0454979 -0.10456316 0.039392218 -0.09632229 -0.053147353
-0.08631607 -0.21755713 -0.11993287 -0.0064745876 -0.01565525 0.008733616 -0.033031285 -0.046917543
-0.024267847 0.0024017945 0.016878527 0.014708433 -0.031611662 -0.06836039 -0.026850216 -0.029106911
-0.18387674 -0.032810874 -0.01923911 0.007224699 -0.054260977 -0.064741574 -0.036107022 -0.085452735
-0.0816785 0.0016890137 -0.11943822 -0.04746966 -0.094080254 -0.043514993 -0.0679241 -0.039921843
-0.034987304 -0.012977907 -0.095363885 0.0068035657 -0.075960554 -0.0081198495 -0.00064091524 -0.11644417
-0.051704586 -0.07729626 -0.07505298 -0.055378012 -0.0039936556 -0.0031379804 -0.079919584 0.014039828
-0.015842363 -0.03074198 -0.048255138 0.024191203 -0.03344286 -0.0699667 -0.06969801 -0.028000489
-0.10403743 -0.06948022 0.0028840809 -0.13722269 -0.086941645 -0.02439052 -0.01788908 -0.09097298
0.0546996 -0.07051844 -0.06312034 -0.07214585 -0.076181926 0.023480328 -0.0848567 -0.089814305
-0.02889968 -0.03716132 0.019932725 -0.07541899 -0.16209792 -0.070208505 -0.017235683 -0.0660099
-0.03269348 -0.085355535 -0.077807315 -0.07188853 -0.12187846 -0.0040148958 0.015367389 -0.098836035
-0.039746244 -0.08417952 -0.061581235 -0.26440898 -0.09194591 -0.04716695 -0.06921984 0.98834795
-0.0885536 -0.06910303 -0.068756714 -0.025730709 -0.056308795 0.015185136 -0.030204039 -0.26868567
-0.07333505 -0.16173173 0.028200764 0.39796588 -0.07439745 -0.059811294 0.007665375 -0.09749577
0.62536746 -0.062780015 -0.053198338 -0.023694625 -0.00077017024 -0.069374986 -0.054125138 -0.07900783
0.01402855 -0.034634292 -0.11206394 -0.0044368682 -0.095139675 -0.054038394 -0.108196855 0.15943265
-0.025058594 -0.028916497 0.024653649 -0.027590824 -0.10987639 0.048937257 -0.06774413 -0.02288579
-0.010157213 0.011303918 -0.04606438 -0.06098755 -0.005333878 -0.021584956 -0.109797955 0.013003505
-0.0694021 -0.048432145 -0.11125544 -0.0051738457 -0.10048875 -0.0028567708 0.0037531622 0.018744826
-0.10019515 -0.013265403 -0.09499336 -0.055578705 0.00865316 0.010785376 -0.07119018 0.04074833

linear3.weight f4 [4, 256]
00000000: 2d26 353d dc6a 35bc b05f 59bb 7287 09bf
00000010: f9b4 223c ca5d 673c 7468 a53a a175 54bd
00000020: 0a5a c4bb 02ab c23d 2b9a da3c a7ba 14bd
00000030: b387 823c 106d 9f3e d0b8 29bd 119a 53bd
00000040: e2fc a9bc 23a1 7a3c 2a13 933a de7b be3c
00000050: 58e2 84bc 471c 833b 5d2f 1e3d 0e6e 443e
00000060: f681 87bc fd91 ac3c 7045 bebe 5666 09bd
00000070: 0659 d33c 8a22 f1bc d9bc 3ebc b403 2e3c
00000080: fe29 c13b c2a3 4a3d 2869 d83c f990 cebb
00000090: 8cc3 4a3d 9fb3 d4bb 1119 553c cecb d13c
000000a0: bfc3 813c a1ec fabc 243c fc3c a043 923c
000000b0: 2ae2 143d 4325 4e3c 9f8a 8abc 7473 3ebd
000000c0: e299 cf3c 761d 2ebd 5d34 a83d 12db 30bd
000000d0: 4f2c b93d e74a 513c 8a68 383b de16 45bc
000000e0: c9dc 1dbc 1f0d 6dbb da3b 97bb 0544 d2bc
000000f0: 0549 1ebc 0ac0 9e3c 70da af3b 4c00 143c
00000100: ee8e ffbe 8320 183c e78a ef3c d864 acbc
00000110: 01e9 3ebd d948 d13c 141c 2d3d 69ab 0b3d
00000120: de6a b73c 8e72 0ebd e088 7dbc 7008 5cbc
00000130: 6cd5 a73c e644 b1bd fbbf 4bbd c6d7 d63c
00000140: fc31 fd3b b163 083d 5689 f5bc 2976 0cbd
00000150: fa9e ba3c a102 a9bb f568 1d3d 6a6e d9bc
00000160: f789 bf3c 4025 c73c 992a 453c 5bdd 41b9
00000170: 0500 9dbc 69bc 933c b7f0 b8bc d17b 46bd
00000180: 4d93 10bc 293f 95bd 97d9 423d e935 20bc
00000190: 1195 bf3a 360b e0bc 149b 36bd 2aa2 c03c
000001a0: 704d 4e3c ceb2 7fbb 7a71 e43c 79f3 1dbb
000001b0: 4c8e ab3c b6db 153d c0cd 93ba ec83 bdbc
000001c0: e7d1 cebc 66b4 3fbd ddfc cb3c ad03 5b3d
000001d0: dde7 b4bb 2809 183b aa7c b1bc 29d3 acbc
000001e0: e416 d5bc 6278 813d 2cd7 a8ba 5061 23bc
000001f0: dcd5 f33c 20aa 9d3c 29ff f939 7c36 3abd
00000200: 9ac2 a43c 61e6 3cbb 6e84 e8bc b6af ef3c
00000210: f1dc 5b3c f4c0 bc3b 2bce 6bbc 7b2a f23c
00000220: 3faa c6bc 9c97 f13c 60fd a83c 742b 19bd
00000230: 7840 863b 116f 4bbd 649c 363d 6ad7 3d3d
00000240: dbb1 fd3b 2e63 08bd 8813 87bc 0339 29bd
00000250: b75a e6bb 611e 8ebc 2f20 33bd 36e9 0d3d
00000260: 5498 5fbd 0be4 293d 6fcd 083d ee48 02bd
00000270: 8d7b 2abb efa3 823c b0b0 393d 1cdf e1bc
00000280: 037a 313d 2550 2dbc 5a1f 00bd 3207 993d
00000290: fbd6 f5bd d819 d33c c3f0 693d 50a7 f1bb
000002a0: 0551 3c3d 3a73 92bc 442e c8bc 9709 c73a
000002b0: b7f6 4dbd 2f73 853d 780b a43b 5ca9 d23c
000002c0: 19e5 63bc dfb7 e3bb ccf8 25be e6ee 9f3c
000002d0: 2c19 9e3c 2cd5 cbba dc5c 1cbd d9b9 a9bc
000002e0: a806 113d 6226 26bd ace2 ff3c 33b4 a8bd
000002f0: 7eed b8bc f713 3ebd a9a0 2a3d 814c 033e
00000300: 5451 6f3d ffbb cf3b 2a77 2c3d 662e 75be
00000310: 84a0 21bc 5304 88bc 6a6e 4d3b d164 4a3c
00000320: b9f8 5cbd 7238 973c 04eb 65bc d6bd 8fbe
00000330: b1f1 29bc 12bf cebc 5373 02bc 40a3 b93c
00000340: 9162 753e 36b5 3bbd d5cf 15bd a409 fc3c
00000350: f88d 9ebc 78f7 3a3d 6f34 10bd d135 a5bc
00000360: 0c5f afbd 3b8d 3f3c f3e2 bc3c c3be d73c
00000370: 9d40 9fbc 9828 d6bc d26b 94bd c2cc 21be
00000380: 0e95 3ebc 4144 863d 3405 2abd 782c 56bb
00000390: 0a4e 4b3c 765d 6fbc 586a b53c 56ac f6bd
000003a0: f550 f83c 94fd 63bc 816c dbbb 2e0f c1bc
000003b0: 30a8 d3bc 04f1 393d 1e41 dabb 6acf 403d
000003c0: 7ec6 9d3c 8041 963d e25f af3c 336e 2bbb
000003d0: 8305 493c e170 b13d 1a83 723d 606a 61bd
000003e0: 316d c9b8 0275 233c 3bfd 233c a98d e93c
000003f0: 124b da3b 5e73 9bbc 3b2a 9fbd 011e f4bb
0.04422586 -0.011072841 -0.0033168606 -0.537223 0.009930843 0.014121482 0.001261963 -0.051869992
-0.005992179 0.095052734 0.026684841 -0.036310818 0.015933847 0.31137896 -0.041436017 -0.0516606
-0.020750467 0.015297207 0.0011220921 0.023252424 -0.01622121 0.0040011737 0.038619388 0.19182608
-0.016541462 0.021065706 -0.37162352 -0.03354486 0.025799286 -0.029435415 -0.0116417045 0.010621
0.0058948984 0.049472578 0.02641733 -0.006303903 0.049502894 -0.006491139 0.013006465 0.025609877
0.01584041 -0.030630412 0.030790396 0.017854512 0.0363485 0.012582126 -0.016911803 -0.046496823
0.025341932 -0.042508565 0.082131125 -0.04317767 0.09041654 0.012774206 0.0028138482 -0.012029378
-0.009635159 -0.003617115 -0.004615289 -0.0256672 -0.009660964 0.01937868 0.005366616 0.009033274
-0.49913734 0.009285095 0.029241038 -0.02104418 -0.04660893 0.025547432 0.042263106 0.034099016
0.022389825 -0.034777217 -0.015474528 -0.013429746 0.02048751 -0.086557195 -0.049743634 0.026225936
0.007726906 0.033298198 -0.029972713 -0.034292374 0.022780884 -0.005157784 0.038430173 -0.026541907
0.023381216 0.024309754 0.012034082 -0.00018488376 -0.019165048 0.018034177 -0.02257572 -0.048457924
-0.008824182 -0.072874375 0.04757079 -0.009778478 0.0014616569 -0.027349096 -0.044581488 0.023514826
0.012591705 -0.0039016488 0.027886141 -0.002410142 0.020941876 0.036586486 -0.0011276528 -0.023134194
-0.025246574 -0.0468029 0.024900848 0.053470302 -0.0055208043 0.0023198817 -0.02166589 -0.021096783
-0.026011892 0.06321789 -0.0012881509 -0.009971932 0.029765062 0.019246161 0.0004768309 -0.045462117
0.020112325 -0.002882384 -0.02838346 0.02925859 0.013419376 0.0057603065 -0.014392416 0.029561272
-0.024251102 0.029491238 0.020628631 -0.037394956 0.0040970407 -0.049666468 0.04458274 0.046348013
0.0077421493 -0.03329771 -0.016488805 -0.041314136 -0.007029857 -0.01734847 -0.043731865 0.034646235
-0.05458863 0.041477244 0.03339904 -0.031807832 -0.0026013583 0.01594731 0.045334518 -0.027572207
0.04332925 -0.01057819 -0.0312799 0.074720755 -0.12003895 0.02576916 0.057114374 -0.0073746815
0.045975704 -0.01787721 -0.024436124 0.0015185353 -0.050284114 0.0651611 0.00500625 0.025715522
-0.013909602 -0.0069494094 -0.1620819 0.019523095 0.019299112 -0.0015551201 -0.038174495 -0.020718502
0.03540674 -0.04056395 0.031236015 -0.08237495 -0.022574183 -0.04640576 0.041657124 0.12822153
0.05842717 0.0063395496 0.04210583 -0.23943481 -0.00986493 -0.016603624 0.003134633 0.012353138
-0.053948138 0.018459532 -0.014033083 -0.2807452 -0.010372565 -0.025237594 -0.007962066 0.022660851
0.23963381 -0.045827113 -0.036575157 0.030766316 -0.019354805 0.04564616 -0.035206255 -0.020167263
-0.08563051 0.011691387 0.023057437 0.02633608 -0.01943999 -0.026142403 -0.072471276 -0.15800765
-0.011632217 0.06555987 -0.04150887 -0.0032680314 0.012408743 -0.014609685 0.022145435 -0.12044589
0.03031204 -0.013915438 -0.0066962843 -0.023566809 -0.025837034 0.045395866 -0.0066605946 0.047072805
0.019259688 0.07336712 0.021408025 -0.0026158213 0.0122693805 0.08664108 0.05920706 -0.055033088
-9.6047654e-05 0.009976627 0.010009105 0.028509932 0.006661781 -0.01897591 -0.07771727 -0.007449866

linear3.bias f4 [4]
00000000: 382d 8940 c4b1 a840 3b84 6740 5d8b c740
4.28677 5.2717 3.6174457 6.235762
