model_level1/model.pth (torch, 275271 bytes, 6 tensors)

linear1.weight f4 [256, 5]
00000000: 7e4a 89bd 8bfc b0bc e291 813f f0e5 7e3e
00000010: 9847 613e 1cbd 8fbd 6926 98bd ce59 8dbf
00000020: 0818 7b3e 5c7f 203e e6b0 b6be 6db4 483e
00000030: b026 35be b68b 98be 4e64 e13e 7a25 953e
00000040: e6ee dbbe 6a49 65c0 e379 cabe 804c 103c
00000050: c7a2 9cbd 55c6 93ba 8a29 4a40 4c53 f3bd
00000060: 37c0 a6be 2387 123d 3de4 a9be a67f 11c0
00000070: a88d 0abe f842 c83e 2fd1 febd 3709 6ebe
00000080: 06ba 9fbd 7022 d33e 1aa3 c23e 285b a5be
00000090: 89a9 6b3d e017 9e3e 703c ed3d 84c9 de3e
000000a0: e0ec ad3a 9a6a e3be 7131 78be 80d0 17bb
000000b0: 1e71 c2be cbb1 5e3e c522 aabe 28c7 5040
000000c0: b4ac cfbe 44f6 7b3e 0125 19bd 91fe 953c
000000d0: b1a5 4140 6064 3e3e 6029 ac3c 6c46 f1bd
000000e0: 2cf6 49bd 4cf9 9c3f b014 3a3d c059 353d
000000f0: 5bf2 843e a195 dabe 47ff 1bc0 04b1 5f3e
00000100: e84c 583e 5af2 9dbe 21a9 88be 63ae 1b3e
00000110: 8d62 dcbe 2ecd d53e 83d9 aebd d42d 1fbf
00000120: 105a a93f 01bf b9be 08be d4bd 5506 5b3d
00000130: 908e 04bf efff df3f 8041 8cbe 865e c53e
00000140: f753 84be bbd7 0f3e a7c8 ae3e 9812 343d
00000150: 732c a5be 72bb 6f3c 8239 aabe e95e 383f
00000160: c491 d3bd 504b e13e 4848 1b3e c001 bfbe
00000170: 4368 3e40 9886 3dbe 5cd1 dc3e 5c0c 0fbe
00000180: 1b89 25be cf25 23c0 7673 d1be ec74 1abe
00000190: d79f 20be 8051 81bc 12ca 063f 5b07 9bbe
000001a0: 6ce4 e7bd ff4d d0be 71bb a5be b67b 003f
000001b0: cc1e 8cbe 406c 0d3e 7ce5 24be 8683 2a3d
000001c0: 0ba7 8dbd 8b6b a6be e23d 7bbe c218 65be
000001d0: ea7d e73c 561a e43d bebc 813e 24c1 673e
000001e0: e51c 0cbc e084 4cbe 48c0 f43e bc23 103e
000001f0: d49c 673e c2ee febd 541f 3f3e c5d7 6b40
00000200: 0c91 8ebd 073a 76be 6619 8ebd e8bc 393d
00000210: 9ae7 08be 0409 b1bd dc53 c2be 25c4 5a3d
00000220: 9b10 f73c 597d 66c0 50eb 753e 20bb 8e3e
00000230: b25c f0be 399f e03d 81ff 7b3e 6c0d c43e
00000240: e865 213d 268f 80bd d23b 9c3e 58d2 85c0
00000250: b211 b8be 2096 b63d 48ec a6be a3ec 6a3d
00000260: 2692 b53e 085a e8bd 270f 60be 29a8 0abe
00000270: 82e2 9ebe 2349 0ebe 0e35 04be be8a 96be
00000280: 5f92 96bd 0be0 dd3b ac8d f6bf bc4e b53e
00000290: a01a 2c3e 686f 26bc 77e3 92be 5289 a6bf
000002a0: 006b 073e a2fa a43e 9584 f8bb e3cc c9bd
000002b0: 41a9 62bf 046e b73e 46d5 b83e eca0 3cbe
000002c0: e83d 3a3e dec8 23bf 7c29 233e e89e 0c3d
000002d0: bc11 44be fe6a 5dbd 003a d73e 24a4 fcbd
000002e0: 2c22 d1bd 1b82 283d 6678 07bf 2614 26c0
000002f0: 2ce0 703e 22b5 c4be 752a b8be e2db 103e
00000300: ad10 ebbe a290 acbe 345f a5be c795 24bd
00000310: 0c2d 74be 6987 6abf fc74 8d3e 0098 593d
00000320: 507f abbe 71a0 afbe 5d70 c43e b4bf 973e
00000330: 10a9 87be 89c2 36be c16b 143e d1a6 9cbe
00000340: 60be d23c b82f 803d 9f68 87bd c973 a8be
00000350: a704 33be 3c0c c53e 6063 373e 0899 40be
00000360: 0f1f 84bc e3ce 7cbf f899 80be 6210 a3be
00000370: bba4 2b3c 7e84 87be d247 8abf a07f dcbc
00000380: 5a7c c33e 1e06 8fbd f13d ebbd a1f6 de3f
00000390: 587f 473e 6c74 5a3e 211f c7bb cd21 9fbe
000003a0: 990c bbbe d0ca 5cbd c0d8 923b 09fc 8ebe
000003b0: 475f 093d 6319 a5be b23f cfbe 4c12 04be
000003c0: 2125 91be 8213 2b3d 21e1 e73d 3802 363d
000003d0: 188d 843d 5f81 07bd 072e e2ba 2a44 8440
000003e0: adb6 cfbe 00fd cebc 92e4 103d 7da3 b93b
000003f0: 70fb 2040 7e67 1abe 0461 9a3e 6d7c 48be
-0.067036614 -0.021604797 1.0122645 0.24892402 0.21999967 -0.070184916 -0.07429201 -1.1043031
0.24520886 0.15673584 -0.35681838 0.19600077 -0.1769054 -0.2979409 0.4402184 0.29130155
-0.42955703 -3.5826058 -0.39546117 0.0088073015 -0.07648235 -0.0011274318 3.1587853 -0.11881122
-0.32568523 0.035773408 -0.33181944 -2.273416 -0.135306 0.39113593 -0.12442242 -0.23245703
-0.07799153 0.4123721 0.38015062 -0.3229611 0.05753473 0.3087759 0.11583793 0.4351312
0.0013269447 -0.44417268 -0.2423761 -0.0023165047 -0.37976927 0.2174751 -0.33229652 3.2621555
-0.4056145 0.24605662 -0.037388805 0.018309863 3.025738 0.18592978 0.021015823 -0.1178101
-0.049307033 1.2263579 0.045429885 0.044275045 0.25966153 -0.42692283 -2.437456 0.2184487
0.21123087 -0.30848962 -0.26691535 0.15203242 -0.43043938 0.41758102 -0.08537581 -0.62179303
1.323061 -0.36278537 -0.10387808 0.053472836 -0.51780033 1.749998 -0.27393723 0.38548678
-0.2584531 0.14047138 0.3413746 0.043963045 -0.32260475 0.014632093 -0.33247 0.7201982
-0.10330537 0.4400277 0.15164292 -0.37306023 2.9751136 -0.18508375 0.4312848 -0.13969558
-0.16165583 -2.5491827 -0.40908402 -0.15083665 -0.15685974 -0.015785933 0.52652085 -0.3027905
-0.11322865 -0.40684506 -0.3236957 0.5018877 -0.27367246 0.13810825 -0.16103166 0.041629337
-0.069166265 -0.32503924 -0.24535325 -0.22372726 0.028258283 0.11137836 0.2533931 0.22632271
-0.008551811 -0.19972563 0.4780295 0.14076132 0.22618419 -0.12447883 0.18664294 3.6850445
-0.06961259 -0.24045573 -0.06938438 0.04534617 -0.13369599 -0.08644298 -0.37954605 0.053409714
0.030159285 -3.6014006 0.24015546 0.2787714 -0.4694572 0.10967869 0.24609186 0.3829149
0.039403826 -0.062773034 0.3051439 -4.1819267 -0.35951 0.08915353 -0.32602143 0.05735458
0.35463065 -0.11345297 -0.2188078 -0.1354071 -0.31032187 -0.13895087 -0.12910864 -0.29402727
-0.07352137 0.006771093 -1.9261985 0.35411632 0.16807032 -0.010158397 -0.28689167 -1.3010657
0.13224411 0.32222468 -0.0075841644 -0.09853532 -0.8853951 0.35826123 0.36100215 -0.18420762
0.18187678 -0.63978374 0.15933794 0.034331232 -0.1914739 -0.054057114 0.42036438 -0.12335995
-0.10211596 0.041139703 -0.5291809 -2.5949798 0.23523015 -0.38419443 -0.35969892 0.14146379
-0.4591116 -0.33704096 -0.32299197 -0.0401819 -0.23845309 -0.9161287 0.27628314 0.053123474
-0.3349557 -0.34302095 0.38366976 0.29638445 -0.26496172 -0.17847647 0.1449423 -0.3059602
0.025725543 0.06259102 -0.06611752 -0.32900837 -0.17482243 0.38485897 0.17909002 -0.18808377
-0.016128091 -0.98753184 -0.2511747 -0.31848437 0.0104762865 -0.2646827 -1.0803168 -0.026916325
0.3818081 -0.06983589 -0.11486424 1.7419015 0.19482172 0.21333474 -0.006076709 -0.31080475
-0.3653305 -0.053904355 0.004481405 -0.27926663 0.03353813 -0.3224593 -0.40478283 -0.12897605
-0.2834864 0.04176665 0.11322237 0.04443571 0.06472224 -0.033082362 -0.0017256149 4.133321
-0.40569058 -0.025267124 0.03537423 0.0056652413 2.5153465 -0.15078542 0.30152142 -0.19578715

linear1.bias f4 [256]
00000000: 5aaf 823f cb82 cfbe 88d9 94be 4935 3dc0
00000010: a3c0 0e40 568d c4bf 9190 7abe 300a 593e
00000020: 6876 3dbf 13dd 2240 af06 4840 1d94 c53f
00000030: db73 f3bf 99e0 033f 4b06 3d3f 9b23 a63f
00000040: c4aa 973e 6877 68be 9a21 f83f 1caf 9dbf
00000050: 71d1 a13e 9278 f93e 4253 80be d0f5 003f
00000060: 2df2 483f 8f0f 3440 8705 7cbe b0d1 32c0
00000070: 5114 29bd 098a 3cc0 1bf9 bc3e cbde 073f
00000080: 79e0 ebbe 5182 28bf 88e1 80bf a3fe a1bf
00000090: 2b78 27be 6352 b2bf a987 e8bd 67ff b9be
000000a0: 8da7 c33c e0a1 b5be dda8 0f3f 3999 1a3f
000000b0: d3f4 15bf 1b99 cf3f 2f34 8e3e c159 e8be
000000c0: fe52 e73e cd79 6740 910e 6f40 50db fd3f
000000d0: f652 54be ddd5 a53e 097d 49bf cb00 e4be
000000e0: 121c 1b3f 8f85 dfbe 0657 1ec0 6fae 3040
000000f0: 1009 d2be 3e96 1a3c bc1f 08c0 b109 833f
00000100: 5d0b b93e 9f39 05c0 94e7 c13f 32a3 8fbe
00000110: 72dc f6be cc94 1dbe 86b1 30be aeaa 8ebf
00000120: 23d0 1cbe cdcf 16c0 563b 0a40 dd80 0b3f
00000130: c204 0a3f 26b0 8dbf e1ed 243e 7c56 d6be
00000140: 5949 9d3f 104e 5cbe f987 083d cf13 023d
00000150: c59a 20be b353 073f 7cae 1140 174f b23f
00000160: e94a d43e 390e 2f3e e5be 1240 e7e2 783e
00000170: e5df b4be 1bda 1640 015c 33bf e10b 8340
00000180: dc68 57bf 849c 25be c4f1 d9bc 9148 cd3c
00000190: bffe 263f db23 babf 3e83 b0bf 2b36 97bc
000001a0: ed3a 593e 386d 36c0 51c8 e53f 0829 e0bf
000001b0: 0e8a d5be 7c49 4240 5994 4940 dbf7 ac3e
000001c0: a469 223f 7a07 30be b2b6 86be e85c ad3d
000001d0: b8ea 543f bd3e 2b3e 4be2 0b3f 5fdb 093f
000001e0: 3ae1 04bf f60f e0bd a4fa 05c0 4c5a 5b3f
000001f0: 3323 a9bf 0a6e 59be 80e7 2ac0 e695 7e3e
00000200: 74a3 0c3e 317e ea3e cc56 803e 0d26 1740
00000210: 5336 8fbd eba1 21c0 b90d 27c0 3889 863f
00000220: 5464 ecbe 7b39 563f f949 c3be 0b5d 3ebf
00000230: c1fb 9c3e b82b 42be 10c7 a83e 5e02 0a3f
00000240: 9ee0 1e3d 31aa 41bd 1353 b83f 7443 f1be
00000250: 840a 33be ad97 f4bd 63ee b23f 8aab dc3e
00000260: 9b39 86bf 8364 9ebe bcfb 9b3e 10f7 7fbd
00000270: 9909 293f 2d85 afbf 00d3 a6be b00d efbe
00000280: 0a1a 03bf 8e55 6f40 19da 8140 4fa2 973e
00000290: 9366 eebe 8647 053f fa0b 693f 1d5c 493e
000002a0: 7fa2 d93e 2be8 96bd c76d 263e 96f1 813f
000002b0: 96a2 dabf aec5 aec0 dd48 4cbf 024a 3fbe
000002c0: cfc5 3fbe f244 d9bf 43c8 88bc 52b4 ba3e
000002d0: 5337 90be 1ba7 85c0 a518 cabe 3d4d 113f
000002e0: 86cc 40bf 60bb 91be 905c 5640 6b6d 003f
000002f0: 30e6 883f d2aa 01bf 23c5 a3be 7bb1 8a3e
00000300: 909b 29bf efcb 0240 62b9 5abe 9b10 3cbe
00000310: 4698 1e3f 4a1d fb3e e878 9d3f e0d5 89bd
00000320: b9fc 223e b61c a4bf 64fd 8bbe 474e f13d
00000330: b26e 483f 1ac5 99be 0550 c1bf ab72 dfbe
00000340: 0c05 c23e 72a2 06bf af25 4f3f e923 a73f
00000350: 449c ae3f 0841 cbbf 2256 23c0 d533 163e
00000360: 7c4c fa3f ca6e fe3d e462 90bf c5f7 0f40
00000370: 7dbe e43e ed7f b9be ec0d af3f 98e0 5abe
00000380: a50a 833f 8a08 8f3f d4ae 2bc0 451c aabf
00000390: acf5 183f b07e 153f 2879 a03f 1b99 a93c
000003a0: 3139 2d3f 8d30 2740 cea7 1bc0 72b4 1ebd
000003b0: cf39 9bbe c9d2 56be 801b 083e 2214 91be
000003c0: df8f d9be 9148 0a3e 10d3 38c0 e4ff 3dbd
000003d0: e150 e43d d1f9 96be 50e2 31c0 6928 2cbe
000003e0: 3fa0 043f 0540 a3be eee7 8d3f d1bc 503c
000003f0: 017e c23e d465 adbf 7644 d0bf fb72 1e40
1.0209763 -0.40529475 -0.29072213 -2.9563773 2.2305076 -1.5355632 -0.2446921 0.21195292
-0.740088 2.5447433 3.125408 1.5435826 -1.9019731 0.51514584 0.7383773 1.2979616
0.2962247 -0.227018 1.9385254 -1.2319064 0.31605104 0.487248 -0.2506352 0.5037508
0.7849453 2.8134496 -0.24611484 -2.7940483 -0.04127914 -2.945925 0.36908802 0.5307433
-0.46069697 -0.6582385 -1.0068827 -1.2655834 -0.16354434 -1.3931392 -0.11354 -0.3632767
0.023883605 -0.35475063 0.5611704 0.6039005 -0.585767 1.6218599 0.27774188 -0.45380977
0.45180506 3.6168091 3.735264 1.9832554 -0.20734772 0.32389727 -0.78706414 -0.44531855
0.60589707 -0.43656585 -2.4740615 2.7606466 -0.4102254 0.009435235 -2.126937 1.0237333
0.36141482 -2.081642 1.5148797 -0.28054196 -0.4821506 -0.15388793 -0.1725522 -1.1145837
-0.15313773 -2.3564332 2.1598716 0.54493505 0.5391351 -1.1069381 0.16106369 -0.41862857
1.2288009 -0.21514153 0.0333328 0.031757172 -0.1568404 0.5286209 2.2762747 1.3930386
0.41463402 0.1709527 2.2929013 0.24305306 -0.35327068 2.357062 -0.7006226 4.0952
-0.8414438 -0.16172987 -0.02660454 0.025059016 0.6523246 -1.4542192 -1.3790052 -0.018458446
0.21213885 -2.8504162 1.7951757 -1.7512522 -0.4170689 3.0357351 3.1496794 0.3378285
0.63442445 -0.17190352 -0.2631126 0.08464986 0.8317065 0.16723152 0.5464217 0.5385036
-0.5190617 -0.10940544 -2.093423 0.8568466 -1.3213867 -0.21233383 -2.6703796 0.24861869
0.13734227 0.457994 0.2506622 2.3616974 -0.069927834 -2.5255077 -2.6102126 1.0510626
-0.46170294 0.8368146 -0.38142374 -0.7436072 0.30660823 -0.1896199 0.32964373 0.5390986
0.03878843 -0.047281448 1.4400352 -0.47121775 -0.1748448 -0.11942992 1.3979 0.43099624
-1.048633 -0.3093606 0.30465496 -0.062491477 0.6603027 -1.3712517 -0.32582855 -0.4669013
-0.5121161 3.7395968 4.0578732 0.2961602 -0.46562633 0.5206226 0.910339 0.19664045
0.42506787 -0.07368501 0.16252814 1.0151851 -1.7080867 -5.461631 -0.7979868 -0.18680575
-0.18727802 -1.6974165 -0.016697055 0.36465698 -0.2816721 -4.1766486 -0.39471927 0.5675848
-0.7531208 -0.28463268 3.3493996 0.5016696 1.0695248 -0.50651276 -0.3198634 0.27088532
-0.66252995 2.043697 -0.2135978 -0.1836571 0.619511 0.49045783 1.2302523 -0.067302465
0.15916719 -1.2821262 -0.2734176 0.11782508 0.7829391 -0.3003319 -1.5102545 -0.43642172
0.37894475 -0.5259162 0.80916876 1.3057834 1.3641438 -1.5879221 -2.5521321 0.1466821
1.9554591 0.12423475 -1.1280179 2.2494977 0.4467658 -0.36230412 1.3676124 -0.21374738
1.0237623 1.1174481 -2.6825457 -1.3289877 0.59749866 0.58396435 1.2536974 0.02070289
0.6766539 2.6123383 -2.432117 -0.038746305 -0.30317542 -0.20978846 0.1329174 -0.28335673
-0.42492577 0.13504244 -2.8878822 -0.046386614 0.11148239 -0.2948747 -2.779438 -0.1681229
0.51807016 -0.3188478 1.1086404 0.01274033 0.37986758 -1.35467 -1.6270893 2.4757679

linear2.weight f4 [256, 256]
00000000: bdad 4e3d 9d84 c73c 33f3 80bd d083 acbc
00000010: be95 a23c bc73 b2bc fc5b 9ebc fcbe a23d
00000020: 6248 b23c d01f 353d 2e8b 80bc 56ab 103d
00000030: e3fd 533d ea2e 303d 960f 053c 789b 3d3d
00000040: a876 81bb 8726 933c 9b35 373d 62d7 903c
00000050: 5427 323d 3e24 36bd 4eb9 723d ed3e 54bd
00000060: eff4 6ebd be2d 55bd c278 9b3c 3fe6 99bd
00000070: c882 10bd 1eb8 ed3c 241d 9f3c bc9c f9bc
00000080: 852e 333d 7908 cf3c 5271 543c 9ddd 8d3d
00000090: dcb9 eb3c af8c b9bb 391c 0ebc e7b4 5b3b
000000a0: 64e5 80bc 3730 3a3c 6842 da3c 5b2c 8bbb
000000b0: e171 03bd c5da 1e3d 229d 6ebd b0f5 d63c
000000c0: 7c6c df3c 24b3 69bc 8a66 173d f882 9d3b
000000d0: e25b 4a3d cbc9 3d3d 5703 04bd 2041 083b
000000e0: 9e25 1dbd 4c65 f63c 0bd2 66bd 2549 5ebd
000000f0: 9aed 0fbd 2d82 1abd 79cb 2cbd b6f6 b2bc
00000100: 4220 3bbd 26b7 cfbc 7f44 163d 281f 18bc
00000110: 5797 a9bc fc3a fdbc 6f6a 1f3d 5b04 6f3d
00000120: 7b74 413d 3adf 0d3d 1dbc ad3c e08e 783c
00000130: 76e6 5d3d 9b51 61bd a4d0 fabc 684d 033c
00000140: a052 eabb 0192 9abc b805 5f3c d491 bf3c
00000150: 9299 063d 865c ee3c 0890 cd3a 8141 6bbd
00000160: 5860 243d 4ae2 57bd d282 093d b772 0f3d
00000170: e894 023c 6b1a 0dbd f33b 203d 34f8 04bd
00000180: c448 203d 58e6 7d3c f6d1 393d 8066 683c
00000190: 4fb4 71bc 3352 69bd d5a0 1ebd 045e b73c
000001a0: 38c5 873c fa5d 8c3c 11a2 3c3d 268e 3fbd
000001b0: 0771 2cbb 1dfc 1bbb 7c56 0d3d 4d2b 98b9
000001c0: 80ef 77bc d0f7 c4bb 3b6b 26bd a04a 29bc
000001d0: 43e2 013d c0de 74bd 74c3 ce3c d4f0 85bc
000001e0: 407a 8b3b 5809 40bd b2b7 1a3d 7783 2f3d
000001f0: ede8 543d 2819 23bc c214 83bd a80d 5cbc
00000200: d003 e5bc 8bec edbb 1898 f63a c7aa 303d
00000210: 44c0 08bd 336b 3abd 851b 4ebc 49c2 68bd
00000220: 54c6 393d 09a8 173c a173 2c3d 679d 0b3d
00000230: 928a 3fbd e45b 6fbd 008f d8bc 061c 663d
00000240: 933c 9fbc e839 333c fa5b 1dbd be7f 203d
00000250: 380b 403d a01c d0bc 0b34 acbc ca63 43bd
00000260: 63a1 213b d657 3f3d abbf c13c 0536 86bc
00000270: 6ea7 57bd 4c82 78bd 7401 2f3d 600a 653d
00000280: 26d3 6ebd 123f 8fbd 9e80 ab3c d836 97bc
00000290: c074 903a 8ef3 373d f415 84bd 08cb 733c
000002a0: 368f 38bd 40b7 8f3c de31 4ebd 744b 0dbd
000002b0: e9bf 003d 9886 abbd e599 7dbd 38e3 40bc
000002c0: 0a36 18bd 4199 b43c c42d 833c 8841 3d3d
000002d0: 8c0d 103d 54aa 4cbd 409b d43a 60f9 dd3b
000002e0: 811e 713d a819 753c 5f26 80bd 2625 01bd
000002f0: c7be 473d 3eea 79bd 7632 20bd 1018 0ebd
00000300: c739 37bd fc9e fb3c 18ad 2c3d 40cd 8cba
00000310: 2dc3 e73a 7df0 e1bc e8de 013d 7afb c9bc
00000320: 1091 073c e595 1abd 78d1 9cbc 3867 50bd
00000330: 7042 8f3c e5ef 04bd a5a7 b83c fc97 26bd
00000340: beee 883d 154e 38bb 8f47 44bd 2d7a c43c
00000350: b126 8bbb cab1 b237 3807 13bd 15aa aebc
00000360: 1b2a 1abd 2a2a 6ebd ef2b 6bbd 369d 37bd
00000370: 324d 73bd 3cd6 fa3c 6972 54bc 4c78 65bd
00000380: 9643 f73b 8fc1 82bd 4807 d1bc 2017 d33c
00000390: dec8 4a3d e070 743d 4c6e 23b9 a4f4 c63c
000003a0: 584d ecbc d2b7 4e3d 2c61 cdbb aae4 813c
000003b0: dc4d fabc 6458 80bd ce22 29bd 2b9b 9f3c
000003c0: 0a67 c6bc 68f1 a13c 43ab 83bd 11d1 573d
000003d0: a0be 203b 1af9 91bc 4f41 e3bc ba48 78bd
000003e0: 9dcb f03c a4f6 86bd c2fc 2abc 0aa5 2d3d
000003f0: d05f 04bc c740 e33c 50ec abbb d7ea 99bd
0.05045866 0.024355227 -0.062963866 -0.021058947 0.019846793 -0.021783702 -0.019330971 0.07946584
0.02176303 0.044219792 -0.015691366 0.03531965 0.051755797 0.04301349 0.008121392 0.046290845
-0.0039509125 0.017962707 0.044728857 0.017680828 0.043494537 -0.044468157 0.05925875 -0.051817823
-0.058339056 -0.052045576 0.01897848 -0.07514619 -0.035280973 0.029018458 0.019423075 -0.030470245
0.043745536 0.025272595 0.012966471 0.06927035 0.028775148 -0.0056625227 -0.008673721 0.0033524574
-0.015734382 0.011364034 0.026642993 -0.004247231 -0.032091025 0.038782854 -0.058255322 0.0262402
0.027273409 -0.014263902 0.036963023 0.0048068725 0.049404033 0.046335023 -0.032229748 0.002079077
-0.038365953 0.030077599 -0.056352656 -0.054268975 -0.035138704 -0.0377218 -0.042186234 -0.021846157
-0.04568506 -0.025355887 0.036686417 -0.009284772 -0.020702047 -0.030911915 0.038919862 0.058353763
0.047230225 0.034636714 0.021207863 0.015170783 0.054174863 -0.055009466 -0.030617066 0.008014061
-0.007150963 -0.018868448 0.013612203 0.023384966 0.0328613 0.029096853 0.0015683183 -0.057435516
0.040130943 -0.05270604 0.033572026 0.03502151 0.007970072 -0.034449022 0.039119672 -0.032463267
0.039131895 0.015496813 0.04536625 0.014184594 -0.014752462 -0.056963157 -0.0387276 0.022383697
0.016573533 0.017134655 0.046052996 -0.046766423 -0.0026312487 -0.0023801394 0.034506306 -0.0002902396
-0.015132785 -0.006010987 -0.040629607 -0.010332733 0.03170992 -0.059782743 0.025239684 -0.016350187
0.0042565167 -0.04688391 0.03777284 0.042849984 0.051979948 -0.009954728 -0.064004436 -0.01343099
-0.02795592 -0.007260864 0.0018813638 0.043131616 -0.033386484 -0.04551239 -0.012579803 -0.05682591
0.045355156 0.009256371 0.04210246 0.034085657 -0.04676301 -0.058437243 -0.026435375 0.05617907
-0.019438064 0.010939099 -0.038417794 0.039184324 0.0468857 -0.025404274 -0.02102091 -0.04770259
0.0024662844 0.046714626 0.023650965 -0.01638318 -0.052649908 -0.060671136 0.042725995 0.055918097
-0.058306836 -0.069944516 0.020935353 -0.018458769 0.0011021122 0.044910006 -0.064495 0.014879949
-0.04505845 0.017543435 -0.050340526 -0.034495786 0.03143302 -0.08375281 -0.061914343 -0.011772923
-0.03716091 0.022045733 0.016013034 0.046205074 0.03516917 -0.049967125 0.0016220585 0.0067741126
0.05886698 0.01495973 -0.06257319 -0.031529568 0.048765924 -0.061014406 -0.039110623 -0.034690917
-0.044732835 0.030715458 0.042157263 -0.0010742322 0.0017682068 -0.027580494 0.03170672 -0.024656046
0.008274332 -0.037740607 -0.019142851 -0.050879687 0.017487735 -0.032455344 0.022540877 -0.040672287
0.066861615 -0.0028122712 -0.047919806 0.02398404 -0.0042465557 2.1302043e-05 -0.035895556 -0.021321336
-0.03763781 -0.05814568 -0.057414945 -0.044827662 -0.05939979 0.030619733 -0.012966731 -0.056022927
0.0075458987 -0.063845746 -0.025516167 0.025767863 0.049507968 0.05967796 -0.0001558598 0.024286576
-0.028845474 0.050468273 -0.0062676873 0.015856106 -0.030554704 -0.06266859 -0.041292958 0.01948317
-0.024219055 0.019768432 -0.0642915 0.052689616 0.0024527684 -0.017818976 -0.027741103 -0.060616232
0.029393965 -0.06590012 -0.010436239 0.04239372 -0.008079484 0.02774085 -0.0052466765 -0.07515495

linear2.bias f4 [256]
00000000: eb9d d73c a9ca 4e3d e87d 1dbe 2177 21bd
00000010: f117 edbc d770 95bd c88d 65bd a240 a1bd
00000020: 916e 02be 6c1a 8cbd 7563 80bc a376 3c3e
00000030: a943 babd 434a f93d aa47 debc 3f02 fc3b
00000040: 407a c6bd 01f1 f3bd 7051 b7bd 376f 22bd
00000050: 2960 04bc f8da 8e3b 1f13 13bd 4cdb 77bd
00000060: b85b 83bc 2c85 ccbd 2543 b1bc fae9 f5bd
00000070: fe15 4bbd c77e e9bc 3175 cfbd 9dd6 2d40
00000080: 31b0 2dbc 7fad f4bd b362 bfbc 0678 0b40
00000090: 4370 02bd 017b c9bd 87e8 8cbd dacd 8fbd
000000a0: 4edf 9fbc 2377 77bd 3042 debc f8bd 0b3d
000000b0: 13dc 21bd 2994 33bd 8d10 53bd f949 9bbd
000000c0: 2442 36be 46ce 433c e44f d43c 5b8f 7e40
000000d0: 3502 e1bc 4ab3 d9bb a433 413d cb97 a9bd
000000e0: 6ebc b0bd ff56 b53c bf98 a6bc 7cab a53c
000000f0: 29ca 7abc 5239 f2bc efb4 76bc b94f a0bd
00000100: 56dd 15be d007 62bd 1be0 f33c 5585 973c
00000110: 4f17 85bd f9cf 8dbd dd82 b0bd 2e6b 45bd
00000120: 4b4f bbbd 90d0 91bb 5ad7 4e3d 1897 7640
00000130: 320a 7f3c e459 4fbd 7129 acbd fe0e b9bd
00000140: aa41 003c 76bd c6bd a446 2ebd bb13 f63b
00000150: 187b 3f40 5081 a4bd 6cde 76bd 489f 9fbd
00000160: 9bea 19b9 5172 c939 0179 0ebd f0ab 1dbd
00000170: 4397 4bbd f193 aebd 48c6 82bd 1cbb 003c
00000180: 008c 85bd a920 fb3d 9172 09bd fd7a 21be
00000190: ca4d 9abd 01f8 e8bd c03e 78bd b0e7 0cbc
000001a0: c3fb bb3c 10c0 9e3c c21d babd ff69 98bc
000001b0: 171a d7bc ac4b 0e3f 2afb c6bc fc4e e5bd
000001c0: b3a1 edbc a021 e6bc acc5 183e 5c4c 9cbd
000001d0: 5ec9 9cbd 94b6 79bd 8ab6 41bd 9fe5 babd
000001e0: de61 bc3c 8d34 313d 94da 37bd b7f5 01bd
000001f0: cb38 1040 090e 503f 115a a5bd 7053 23bd
00000200: dd21 15bd cc27 dbbd 06a8 193d 30fa 8fbd
00000210: 8b10 18bd c1dd 3d40 a25e 55be 92d2 a93e
00000220: b44b e7bd 8adb 04bd e6d3 7d3c e51e 1040
00000230: b2a1 243d e301 57bc 68de 023b 272f e3be
00000240: 0bed 90bd f642 e5bd 3ffc 233c 4bdb aabd
00000250: 372b aebc ea90 cfbc 1680 5bbd a01d 153f
00000260: c8c9 a9bd 3113 73bd b7d7 c6bd 2f82 30bd
00000270: b7a8 70bd 6e33 dabd 0cbb dabd a373 a5bd
00000280: ba9b 333c b8e3 b0bd 2309 72bd cd12 64bc
00000290: 11af 873f 44e1 1cbe 363f 1dbe f7dd 0fbe
000002a0: 0145 74bd 0773 39bc 79d4 b1bd 264e febd
000002b0: 8ee8 7abd dd2e cabc 7cf4 5cb9 0d0f ca3c
000002c0: 53d4 91bd 7c03 d2bc feee 82bd af15 bbbd
000002d0: 4701 3abd 9e7a bdbd 2eb8 cd3c 83fd 42bd
000002e0: a0c2 adbc 5351 85bd 77c4 9c3c d359 e5bd
000002f0: 8b68 70bd 7753 04be 7966 94bd ba01 85bb
00000300: 243c 99bd 0f66 263c 40bf b3bd 4f22 6dbd
00000310: 6d9f 95bb bb9c 703c 0b70 cc3c b484 96bd
00000320: 2db3 d5bd 9704 8bbd 8415 f7bd cd77 85bd
00000330: 304f debc 1425 77bd 771f b8bd 053f b8bc
00000340: 53f7 1cbd e6ce d0bd 1993 51be e98c 19bd
00000350: 8a04 503b 39df dcbb 997f fa3c 2be4 8fbd
00000360: 5530 59bd caee 41bd 7875 56bc 1a52 1abe
00000370: 53f5 ea3c 756d 543d 5c1e 34bd b4da 4bbd
00000380: d83c 943b 9125 08bd 133d a8bd 10ba aabc
00000390: d2ef aabd 39bc 24bd 0f5f 78bd 0f0f 91bc
000003a0: 7c1a ddbd fa09 b3bc 1434 e23c f951 ddbc
000003b0: 3256 b6bd f1d0 843d 4c3b 7fbc 1373 62bd
000003c0: 80ef efbc a84a abbe a2bd 95bd 202b 08be
000003d0: 0ed1 97bd e978 91bc 318d c3bb 4405 923c
000003e0: 6808 6c3c c95e 5bbd 3648 3f3c b696 73bd
000003f0: 1a48 1bbd 349a 39bd 2fa3 6d3f 565f 84bc
0.026320418 0.05048624 -0.1538006 -0.03942025 -0.02894208 -0.07296913 -0.056043416 -0.07873656
-0.1273749 -0.06840977 -0.015672425 0.18404631 -0.090949364 0.121723674 -0.027133781 0.0076906974
-0.09691286 -0.11911202 -0.0895108 -0.039656844 -0.008079567 0.004359599 -0.035906907 -0.060511872
-0.016034946 -0.09986338 -0.021638462 -0.12007518 -0.04958152 -0.028502835 -0.10129774 2.716224
-0.010601089 -0.11947154 -0.023362493 2.1792006 -0.031845342 -0.09837914 -0.068802886 -0.07021685
-0.01951566 -0.060416352 -0.02713117 0.034116715 -0.03951652 -0.04384247 -0.051529456 -0.075824685
-0.17798668 0.011951035 0.025917001 3.9774997 -0.027466873 -0.0066436874 0.04716839 -0.08280905
-0.0862969 0.02213621 -0.020336507 0.020223372 -0.015306988 -0.029568348 -0.015057786 -0.07827706
-0.14635214 -0.05518323 0.029769948 0.018496195 -0.064985864 -0.06924433 -0.0861871 -0.048197918
-0.09145983 -0.0044499114 0.050498344 3.852972 0.015566396 -0.050622836 -0.08406342 -0.09036063
0.0078281555 -0.097041056 -0.042547837 0.0075096763 2.991888 -0.08032477 -0.06027071 -0.07794052
-0.00014678614 0.0003842288 -0.034783367 -0.03849405 -0.0497048 -0.08524311 -0.063854754 0.00785711
-0.065208435 0.12262089 -0.033556525 -0.15769573 -0.07534368 -0.11375428 -0.060606718 -0.0086001605
0.022947198 0.019378692 -0.09087707 -0.01860523 -0.026257558 0.55584216 -0.024289686 -0.11196706
-0.029007768 -0.028092206 0.14919156 -0.07631752 -0.07655595 -0.060965136 -0.047293223 -0.09125828
0.022995885 0.043263007 -0.044886187 -0.031728473 2.2534664 0.81271416 -0.080738194 -0.039874494
-0.036409248 -0.1070095 0.037513755 -0.07030141 -0.03712515 2.9666598 -0.20836881 0.33168465
-0.11293736 -0.03243593 0.015492415 2.2518857 0.040193267 -0.013123008 0.001996899 -0.44371912
-0.07076462 -0.111944124 0.010008871 -0.08342608 -0.02126084 -0.025337655 -0.05358895 0.5824833
-0.0829044 -0.059344474 -0.09709113 -0.043092903 -0.05875465 -0.10654341 -0.106802076 -0.080786966
0.010962421 -0.08637184 -0.059090745 -0.013920498 1.0600301 -0.15320307 -0.15356144 -0.14049517
-0.05963612 -0.011318929 -0.08683104 -0.124172494 -0.061256938 -0.02468055 -0.00021071912 0.02466538
-0.07120576 -0.025636427 -0.063932404 -0.09134995 -0.045411374 -0.09251903 0.025112238 -0.04760505
-0.021210968 -0.06509652 0.01913665 -0.11198773 -0.05869345 -0.12922464 -0.072461076 -0.0040590437
-0.07482174 0.010156169 -0.087767124 -0.057894047 -0.004566124 0.014685805 0.02495577 -0.0734953
-0.10434566 -0.06787985 -0.12064651 -0.06516991 -0.027137369 -0.060338095 -0.089903764 -0.022490988
-0.038321804 -0.10195713 -0.2046627 -0.037487898 0.0031740987 -0.0067404774 0.030578421 -0.070259415
-0.05302461 -0.047346868 -0.01308953 -0.15070382 0.028681433 0.0518622 -0.043974265 -0.04976912
0.0045238547 -0.03323895 -0.08214774 -0.020840675 -0.08346523 -0.040218566 -0.06063753 -0.017707376
-0.10796067 -0.021855343 0.027612723 -0.027016627 -0.08903159 0.06485165 -0.015578102 -0.055285525
-0.029289007 -0.33455396 -0.0731156 -0.13297701 -0.07412921 -0.01775785 -0.005967759 0.017824776
0.014406301 -0.05355719 0.011674931 -0.0594699 -0.03791056 -0.045313075 0.92827123 -0.016158741

linear3.weight f4 [4, 256]
00000000: 75fd e7bc 97e6 db3d c899 35bd 90c1 43bc
00000010: 059f 53bd 893f a73c f81a ecbc 6b6e b1bc
00000020: fc57 5bbd b820 ddbc 6f55 52bc a7dc cfbc
00000030: f5b2 a63d 750e 013d d65c a43b 3d04 3ebd
00000040: 4ff0 593c 9ea1 51bb 172a 4a3d 3493 a5bc
00000050: 53c5 a13c e154 7abc 4c3d 483d b6e2 693d
00000060: a202 6bbd faef 1ebc 0688 cd3b c8b0 24bc
00000070: a07f 843c bdfb 82bb a47c 5bbc dbf1 393e
00000080: 7ed7 ebbc 4e32 cb3d 9e15 233d 89d5 eb3e
00000090: 12ec 653d 4352 2d3c 043c 453d c940 91bc
000000a0: b4b1 123c 59d9 41bc 8d0f dcbc 382a 97bc
000000b0: 0b76 70bd 7392 8f3d e739 0ebb 2aa5 7abb
000000c0: 451d dd3c b800 253c ee43 a2bc 64b0 783e
000000d0: d6a1 71bd b802 a33c fac4 453d 4445 f0bc
000000e0: 69bd c23d 48d0 abbc 84a2 493c ec8f 67bd
000000f0: 0087 9d3a 18ef a83b 2d1a 3f39 f889 9a3d
00000100: 2e7c 8238 4c90 2939 ec93 2d3d a063 febb
00000110: 9f0b 2e3c f0ba 453c d086 ecbb 1ee5 14bd
00000120: 97e2 143d 929f f1bc 5de5 953d f6a4 a83e
00000130: 05f3 073c bd1a a63c 8018 1cbc 542e 7b3c
00000140: 29ad 293d f7b7 363d 30ce b53b 985d a93d
00000150: c688 1e3e caf0 82bc 5cd5 7bbd 3171 143b
00000160: 770d b3bc b0bd ab3d d6c3 6b3c ca20 fa3c
00000170: 0c2b 403d 5c93 5f3d 7087 c43b e1f2 133c
00000180: 865d edbc 2ee0 fe3c 3537 c43d 2181 37bc
00000190: 854d 5e3d 8a84 45bc d54e 80bd 44ae dcbb
000001a0: 5fe3 203d 485e 2cbd 62e3 3a3b f571 e23a
000001b0: 5639 17bd 7ef4 9d3d e002 12bd dc77 ef3c
000001c0: 0fee 703c 9bf8 ec39 d920 563d b909 cb3c
000001d0: 0583 17bd 8440 5f3d 1907 cfbc 7ced 2e3d
000001e0: 93ca 7e3c 39b2 d83c 1909 253d b4da 04bd
000001f0: 76fc f13d 019b 693e 2971 213d 0d4f 5dbd
00000200: 60b8 20bb 7a0f c9bc f17c ca3c a68c fcbc
00000210: 7d00 063d 0df0 d33d aa24 a53d d07b 7a3d
00000220: b0a7 143d 8ce3 cabb 4165 b23c 530c ae3d
00000230: 8013 073d 3803 743d 41f4 c83c fe67 cd3b
00000240: 6c11 ab3d 1ef9 de3c 030b 1a3d c6e0 6a3c
00000250: e105 813c d3f2 bb3c bd48 623d 9397 fa3d
00000260: 5765 07bd 0896 5dbc eed0 363d 25c0 45bd
00000270: 84ce e2ba f489 d03c 4e1d 053e cf70 b43d
00000280: 0d18 333c 8a14 27ba d029 57bd c063 f83c
00000290: 868a 503d 5654 3d3e af61 b53d 708e 8e3b
000002a0: d130 3c3b e2c7 413d 7751 16bd 88cb a53c
000002b0: 13e0 b13d bf93 eabc 5548 30bd 4c5c 9d3b
000002c0: 1ce9 113d 1ed0 babc d0ea efbc eab1 a33c
000002d0: 61d7 813b 27f2 19bd 8a8c 40bd 76cc 463d
000002e0: a146 b23d b103 1f3d b5c4 4e3d d8ec 0cbd
000002f0: 1c2a b63c 7e19 5dbd 1cf3 493c 2083 193c
00000300: da74 af3c ccf9 dbbc 0d9f 72bc d56e 4d3d
00000310: 7b37 4a3b 5084 933c 07ad 04ba 85fd ab3a
00000320: be50 9fbc 53a3 1a3c 506f 03bc 9954 80bb
00000330: d9b2 993c dae3 c73c 1449 243d e0b5 003c
00000340: 7f60 a8bb 08f5 0e3d fea5 bc3c 517d 633d
00000350: 3fd0 ab3a f07a b6bd 270b 36bc 93fc c7bc
00000360: 0dc7 963c d068 6b3c b400 f33c c101 693d
00000370: 7b91 f2bc 62eb 94bc f48b 1dbc 2b45 703c
00000380: 4f71 d4bb 94c1 233c 561c ef3b 00fb 60bc
00000390: 9277 cebc b4ab 8c3a bb50 cbbc be21 f8bc
000003a0: 3c99 ecbc 0443 2f3c 4083 a93c 92a9 393d
000003b0: efe8 4b3d 2358 e7bc a248 e23c eb0d d73c
000003c0: 42cd 43bd 8582 543b 7c1e c53c b926 24bb
000003d0: fa45 7e3d 28e8 f33c 6279 08bd 94c1 1fbd
000003e0: 585f 48bd a354 863c 1598 2abc e54c 793d
000003f0: 35a3 a73c 3f48 2ebd 4509 773d fe21 eabc
-0.0283191 0.10737341 -0.04433611 -0.011948004 -0.051665325 0.020416038 -0.028821453 -0.021659097
-0.053550705 -0.02699314 -0.012837752 -0.02537377 0.08139602 0.031507928 0.0050159497 -0.04639076
0.013301923 -0.00319872 0.049356546 -0.020211793 0.019747412 -0.015279026 0.048886582 0.057100974
-0.057375558 -0.00970077 0.006272319 -0.010051914 0.016174138 -0.0039972947 -0.013396416 0.18158667
-0.028789278 0.09921704 0.039815538 0.46061352 0.056133337 0.010578695 0.04815294 -0.017731087
0.008953501 -0.011831605 -0.026862884 -0.018452749 -0.058706325 0.07010355 -0.0021701993 -0.0038245418
0.026991496 0.010070972 -0.019807782 0.24286038 -0.05899223 0.019898757 0.048283555 -0.029329903
0.09508783 -0.02097334 0.012306813 -0.05653374 0.0012018383 0.0051554553 0.0001822493 0.07545847
6.222013e-05 0.0001617085 0.042377397 -0.007763341 0.010622888 0.012068495 -0.0072182193 -0.036351316
0.036348905 -0.029495034 0.07319138 0.32938355 0.008297686 0.020276422 -0.009527326 0.01533087
0.041424904 0.044609036 0.005548261 0.08269805 0.15481862 -0.015983958 -0.061482772 0.0022650475
-0.021857006 0.083857894 0.014389953 0.030533213 0.046916053 0.054583892 0.0059975907 0.009030075
-0.02897526 0.031112757 0.095808424 -0.01120022 0.054273147 -0.012055526 -0.06265036 -0.0067346413
0.039279338 -0.0420821 0.0028516878 0.0017276393 -0.036919914 0.07712649 -0.035647273 0.029231958
0.014705195 0.00045198653 0.05227742 0.02478491 -0.036990184 0.054504886 -0.02527194 0.04270695
0.015551227 0.02645217 0.04029188 -0.032435134 0.11815731 0.22813036 0.03941456 -0.054030467
-0.0024523959 -0.024543513 0.02471778 -0.030828785 0.03271531 0.103485204 0.08063634 0.061153233
0.03629273 -0.0061916765 0.021776797 0.084984444 0.03297758 0.059573382 0.024530532 0.0062685004
0.08352932 0.027218398 0.037608158 0.014335817 0.015749874 0.022942936 0.05524515 0.12235942
-0.03305563 -0.01352454 0.044632845 -0.048278946 -0.0017303978 0.025456406 0.1299946 0.08810579
0.010931027 -0.0006373605 -0.05253011 0.030321002 0.050913356 0.18489203 0.08856522 0.004350476
0.002871562 0.047309764 -0.036698785 0.020238653 0.08685317 -0.028634904 -0.04303773 0.0048022624
0.0356227 -0.022804316 -0.029286772 0.019982297 0.0039624427 -0.03758445 -0.04700903 0.048534833
0.08704878 0.03882188 0.050480563 -0.03440556 0.022236876 -0.05397939 0.012326028 0.009369642
0.021418024 -0.02685251 -0.0148084285 0.050154526 0.0030855823 0.018007427 -0.00050611835 0.0013121819
-0.01944768 0.009438354 -0.008022144 -0.003916335 0.018762039 0.02440064 0.040108755 0.007855862
-0.0051384564 0.03490165 0.02302837 0.055539433 0.0013108327 -0.08910167 -0.011111057 -0.024412429
0.018405462 0.014368251 0.029663421 0.05688644 -0.029610386 -0.018178646 -0.009615887 0.014664928
-0.006483234 0.009994883 0.007297079 -0.013731718 -0.0252035 0.0010732324 -0.024818769 -0.030289527
-0.028881662 0.01069713 0.020692468 0.04532773 0.04978269 -0.028240269 0.027622525 0.026251754
-0.04780317 0.0032426429 0.024062388 -0.0025047495 0.062078454 0.029773787 -0.033318885 -0.03900297
-0.048919052 0.01639778 -0.010412236 0.060864348 0.020463565 -0.042549368 0.060311574 -0.028580662

linear3.bias f4 [4]
00000000: 927e 1a40 7d45 3940 f3df bd3f fa44 0c40
2.4139752 2.8948662 1.4833969 2.19171
